embeddings/CD player_embedding.npy (npy, 24704 bytes, 1 tensors)

array f8 [3072]
000000 00 00 00 a0 c2 0a a2 bf 00 00 00 e0 77 32 6d bf
       -0.035238344222307205 -0.0035641042049974203
000010 00 00 00 00 89 b4 92 bf 00 00 00 40 5b 8d 82 bf
       -0.018266811966896057 -0.009058678522706032
000020 00 00 00 80 24 35 ab bf 00 00 00 e0 81 f8 90 3f
       -0.0531398206949234 0.01657298021018505
000030 00 00 00 20 b1 1e a5 bf 00 00 00 80 c0 e0 a8 3f
       -0.04124978557229042 0.04858972132205963
000040 00 00 00 80 ce ee 84 3f 00 00 00 e0 22 81 b3 3f
       0.01022111251950264 0.07618921250104904
000050 00 00 00 20 b0 89 78 3f 00 00 00 e0 63 fd 5b bf
       0.005990684498101473 -0.001708362135104835
000060 00 00 00 c0 d4 ca 9d bf 00 00 00 e0 ba 29 a0 bf
       -0.02909405156970024 -0.03156837448477745
000070 00 00 00 80 7b 10 8e bf 00 00 00 60 5b 42 76 bf
       -0.01467987522482872 -0.0054343766532838345
000080 00 00 00 a0 e8 4a 9b bf 00 00 00 c0 8c 47 97 bf
       -0.02665294148027897 -0.02273387834429741
000090 00 00 00 80 33 8d 77 bf 00 00 00 c0 f8 37 a4 3f
       -0.005749894306063652 0.03948953002691269
0000a0 00 00 00 60 e9 2a 94 3f 00 00 00 60 1f a3 a2 bf
       0.019694944843649864 -0.036400776356458664
0000b0 00 00 00 e0 41 0b 60 bf 00 00 00 e0 b6 db 72 3f
       -0.00195849291048944 0.0046040671877563
0000c0 00 00 00 80 17 bc 7b 3f 00 00 00 80 3a 94 95 3f
       0.006771175190806389 0.02107325941324234
0000d0 00 00 00 e0 29 88 a1 bf 00 00 00 00 ec 73 88 3f
       -0.034241970628499985 0.011939853429794312
0000e0 00 00 00 80 da 87 ab bf 00 00 00 e0 71 0b 98 bf
       -0.05377085506916046 -0.023481158539652824
0000f0 00 00 00 20 5a 43 a2 3f 00 00 00 e0 ba 29 a0 3f
       0.03567010536789894 0.03156837448477745
000100 00 00 00 c0 8a 1d 9e bf 00 00 00 00 88 1f 26 3f
       -0.02940956875681877 0.00016878638416528702
000110 00 00 00 e0 06 b0 a7 bf 00 00 00 00 b5 66 3d bf
       -0.046264853328466415 -0.0004486266989260912
000120 00 00 00 60 e9 2a a4 3f 00 00 00 a0 f5 78 9e bf
       0.03938988968729973 -0.02975829876959324
000130 00 00 00 00 4a 56 89 bf 00 00 00 c0 4e 7e 9a bf
       -0.012371614575386047 -0.025872450321912766
000140 00 00 00 a0 53 5b 7f bf 00 00 00 40 c4 73 8d bf
       -0.007655455265194178 -0.014380963519215584
000150 00 00 00 00 ae b0 80 3f 00 00 00 40 11 e0 a2 3f
       0.008149489760398865 0.03686574846506119
000160 00 00 00 e0 3c 28 86 3f 00 00 00 80 fe f4 91 3f
       0.010818934999406338 0.017536140978336334
000170 00 00 00 80 e2 23 86 bf 00 00 00 00 74 ea a4 3f
       -0.01081063225865364 0.04085123538970947
000180 00 00 00 c0 c1 2a 99 bf 00 00 00 00 72 c0 9b 3f
       -0.024577166885137558 0.0271013081073761
000190 00 00 00 60 d5 f5 72 bf 00 00 00 80 db 1c 58 bf
       -0.0046289763413369656 -0.0014717238955199718
0001a0 00 00 00 00 de 65 8c bf 00 00 00 20 c4 be 89 3f
       -0.01386617124080658 0.012570888735353947
0001b0 00 00 00 20 65 47 8c 3f 00 00 00 20 f2 9a 8d 3f
       0.013808050192892551 0.014455691911280155
0001c0 00 00 00 40 46 c3 74 bf 00 00 00 60 61 b4 b7 3f
       -0.005069040693342686 0.092596136033535
0001d0 00 00 00 c0 d6 f4 96 bf 00 00 00 a0 bf 51 51 bf
       -0.02241836115717888 -0.0010570880258455873
0001e0 00 00 00 40 2b 87 a5 3f 00 00 00 60 9d 53 8b bf
       0.04204688221216202 -0.013343076221644878
0001f0 00 00 00 c0 8d dc 93 bf 00 00 00 e0 3a fe 7c 3f
       -0.019396033138036728 0.0070783901028335094
000200 00 00 00 00 02 d3 a2 bf 00 00 00 e0 e9 9a 90 3f
       -0.036766111850738525 0.01621594838798046
000210 00 00 00 80 45 e9 90 bf 00 00 00 00 02 d3 b2 3f
       -0.016514860093593597 0.07353222370147705
000220 00 00 00 a0 da 8d 60 3f 00 00 00 c0 1f 0d 9a 3f
       0.0020207662601023912 0.02544068917632103
000230 00 00 00 80 75 9e 9c bf 00 00 00 c0 c9 c6 93 bf
       -0.027948223054409027 -0.01931300386786461
000240 00 00 00 c0 b9 8e 9e bf 00 00 00 20 10 96 a2 3f
       -0.029841329902410507 0.036301139742136
000250 00 00 00 c0 8c 47 87 bf 00 00 00 00 13 49 9e bf
       -0.011366939172148705 -0.029575631022453308
000260 00 00 00 40 e6 b6 8a bf 00 00 00 60 81 82 af 3f
       -0.013044165447354317 0.06154255196452141
000270 00 00 00 60 e6 6b 5e 3f 00 00 00 a0 e8 4a 7b bf
       0.0018567800289019942 -0.006663235370069742
000280 00 00 00 00 f8 0c 9f 3f 00 00 00 a0 90 8f 9f bf
       0.030322909355163574 -0.030821094289422035
000290 00 00 00 e0 df da 91 bf 00 00 00 60 ab 61 87 3f
       -0.017436502501368523 0.01141675841063261
0002a0 00 00 00 40 83 f7 94 bf 00 00 00 c0 e8 ff 1e 3f
       -0.020475436002016068 0.00011825426190625876
0002b0 00 00 00 60 1f a3 92 bf 00 00 00 e0 ca 10 b4 bf
       -0.018200388178229332 -0.07838123291730881
0002c0 00 00 00 e0 ba 29 a0 bf 00 00 00 e0 72 a0 94 3f
       -0.03156837448477745 0.020143313333392143
0002d0 00 00 00 c0 b3 1c 9d 3f 00 00 00 e0 57 64 95 3f
       0.028429802507162094 0.02089059166610241
0002e0 00 00 00 20 02 88 a6 3f 00 00 00 00 2a 3d a5 3f
       0.044006410986185074 0.04148226976394653
0002f0 00 00 00 a0 69 ba 99 3f 00 00 00 e0 7f ce 97 bf
       0.02512517012655735 -0.023248670622706413
000300 00 00 00 80 da 87 9b bf 00 00 00 40 5a f8 85 bf
       -0.02688542753458023 -0.010727601125836372
000310 00 00 00 a0 e4 02 93 bf 00 00 00 40 6c 03 9e bf
       -0.018565723672509193 -0.02930993214249611
000320 00 00 00 20 23 36 67 3f 00 00 00 c0 c3 54 a2 bf
       0.0028334318194538355 -0.03580295294523239
000330 00 00 00 20 24 cb 93 bf 00 00 00 00 6b b9 8d bf
       -0.019329609349370003 -0.014513812959194183
000340 00 00 00 20 82 ad 64 3f 00 00 00 a0 e9 df 97 3f
       0.0025241414550691843 0.023315096274018288
000350 00 00 00 80 60 d4 8e 3f 00 00 00 40 59 63 89 3f
       0.015053514391183853 0.012396523728966713
000360 00 00 00 40 29 5d 9c 3f 00 00 00 60 17 07 a8 bf
       0.02769913151860237 -0.04692910239100456
000370 00 00 00 e0 a6 a3 6d bf 00 00 00 e0 0b 8d 6c 3f
       -0.0036180743481963873 0.0034852249082177877
000380 00 00 00 00 59 ae a5 3f 00 00 00 80 38 6a 8c bf
       0.042345792055130005 -0.013874474912881851
000390 00 00 00 60 b0 44 81 bf 00 00 00 a0 0a 43 8c 3f
       -0.008431795053184032 0.01379974652081728
0003a0 00 00 00 00 00 a9 69 bf 00 00 00 a0 85 8b 85 bf
       -0.003132343292236328 -0.010520023293793201
0003b0 00 00 00 e0 58 f9 81 bf 00 00 00 a0 48 57 95 bf
       -0.008776373229920864 -0.020840773358941078
0003c0 00 00 00 a0 6f 2c 7b bf 00 00 00 e0 70 7c a0 bf
       -0.006634174380451441 -0.03219940885901451
0003d0 00 00 00 e0 41 0b 90 3f 00 00 00 60 c1 c0 a1 3f
       0.01566794328391552 0.03467373177409172
0003e0 00 00 00 c0 19 9b 98 3f 00 00 00 60 ba b9 a3 3f
       0.024029161781072617 0.03852636739611626
0003f0 00 00 00 00 31 44 93 bf 00 00 00 20 3f 07 a3 bf
       -0.018814817070961 -0.03716466203331947
000400 00 00 00 e0 29 88 81 bf 00 00 00 c0 77 7d 79 bf
       -0.008560492657124996 -0.006223171018064022
000410 00 00 00 c0 6f e1 ae bf 00 00 00 00 cb c5 97 3f
       -0.060313694179058075 0.023215457797050476
000420 00 00 00 60 5a ad 99 bf 00 00 00 c0 dd fb 54 3f
       -0.02507535181939602 0.0012807527091354132
000430 00 00 00 60 0b 6e a1 3f 00 00 00 60 ba b9 93 3f
       0.03404269739985466 0.01926318369805813
000440 00 00 00 60 59 18 8d bf 00 00 00 00 a1 31 8c bf
       -0.01420659851282835 -0.013766534626483917
000450 00 00 00 60 75 e9 98 bf 00 00 00 c0 c0 95 5c 3f
       -0.024328073486685753 0.00174468825571239
000460 00 00 00 40 ec dd 7f bf 00 00 00 80 24 35 6b 3f
       -0.007780001498758793 0.0033212387934327126
000470 00 00 00 20 83 42 a1 3f 00 00 00 20 10 96 a2 3f
       0.03371057286858559 0.036301139742136
000480 00 00 00 a0 76 33 89 bf 00 00 00 00 af f4 8b 3f
       -0.012305189855396748 0.013650290668010712
000490 00 00 00 40 53 f1 97 bf 00 00 00 80 84 41 a5 3f
       -0.023381520062685013 0.04151548445224762
0004a0 00 00 00 e0 58 f9 a1 bf 00 00 00 80 25 ca 87 3f
       -0.035105492919683456 0.01161603257060051
0004b0 00 00 00 e0 af d4 a4 bf 00 00 00 e0 0d b7 85 bf
       -0.040685173124074936 -0.01060305442661047
0004c0 00 00 00 80 4e c9 86 bf 00 00 00 c0 1b c5 91 bf
       -0.011126149445772171 -0.017353471368551254
0004d0 00 00 00 60 75 e9 48 bf 00 00 00 a0 70 c1 97 3f
       -0.0007602522964589298 0.023198852315545082
0004e0 00 00 00 40 09 44 98 bf 00 00 00 60 37 26 31 bf
       -0.023697037249803543 -0.0002616772835608572
0004f0 00 00 00 00 e6 01 87 bf 00 00 00 80 7c a5 8a 3f
       -0.011234089732170105 0.01301095262169838
000500 00 00 00 e0 14 be 83 3f 00 00 00 00 02 d3 82 3f
       0.009639895521104336 0.009191527962684631
000510 00 00 00 80 41 9b a3 bf 00 00 00 c0 4e 7e 5a 3f
       -0.038293883204460144 0.0016170281451195478
000520 00 00 00 60 3a df 71 bf 00 00 00 a0 fc 7f 7c bf
       -0.0043632774613797665 -0.006957995239645243
000530 00 00 00 20 66 dc 98 3f 00 00 00 40 23 eb 4a 3f
       0.02427825517952442 0.0008214876288548112
000540 00 00 00 60 3e dc 6d bf 00 00 00 60 d3 cb 99 3f
       -0.0036450594197958708 0.025191595777869225
000550 00 00 00 20 53 3c 94 3f 00 00 00 c0 76 e8 6c bf
       0.01976137049496174 -0.003528816159814596
000560 00 00 00 40 e8 e0 73 bf 00 00 00 c0 4e 7e 8a bf
       -0.004853160120546818 -0.012936225160956383
000570 00 00 00 c0 62 b3 9b 3f 00 00 00 20 b2 b3 91 3f
       0.027051489800214767 0.01728704757988453
000580 00 00 00 c0 1a 30 a5 3f 00 00 00 c0 2c 3b 6d bf
       0.04138263314962387 -0.0035682558082044125
000590 00 00 00 a0 41 50 87 3f 00 00 00 60 69 50 62 bf
       0.011383545584976673 -0.00223560887388885
0005a0 00 00 00 c0 d7 89 83 bf 00 00 00 60 7b 5b 9a 3f
       -0.009540257975459099 0.025739600881934166
0005b0 00 00 00 00 64 03 a1 3f 00 00 00 a0 10 b5 ad bf
       0.03322899341583252 -0.058022040873765945
0005c0 00 00 00 c0 94 e3 91 3f 00 00 00 00 d0 a2 9c 3f
       0.01746971532702446 0.02796483039855957
0005d0 00 00 00 60 69 50 f2 be 00 00 00 c0 d7 89 83 3f
       -1.7465694327256642e-05 0.009540257975459099
0005e0 00 00 00 e0 1f c2 8d 3f 00 00 00 20 9d e9 73 bf
       0.014530419372022152 -0.004861463326960802
0005f0 00 00 00 80 b4 47 82 bf 00 00 00 00 af f4 8b bf
       -0.008925829082727432 -0.013650290668010712
000600 00 00 00 e0 ad aa 6b 3f 00 00 00 20 38 00 55 bf
       0.0033772846218198538 -0.0012817905517295003
000610 00 00 00 80 33 8d 97 bf 00 00 00 e0 63 fd 8b 3f
       -0.022999577224254608 0.01366689708083868
000620 00 00 00 40 84 8c 91 bf 00 00 00 20 6f 0d 90 3f
       -0.017137590795755386 0.01567624695599079
000630 00 00 00 00 3c 48 4d bf 00 00 00 00 43 4f 5b 3f
       -0.0008936207741498947 0.0016668466851115227
000640 00 00 00 c0 06 fb 93 bf 00 00 00 a0 fe a9 75 3f
       -0.019512277096509933 0.005289072636514902
000650 00 00 00 e0 0a f8 9f 3f 00 00 00 40 aa cc 7a 3f
       0.031219644472002983 0.006542840041220188
000660 00 00 00 e0 58 f9 81 3f 00 00 00 e0 c3 09 a6 3f
       0.008776373229920864 0.04304325208067894
000670 00 00 00 c0 35 6c 84 bf 00 00 00 a0 25 7f 9b 3f
       -0.009972019121050835 0.026852214708924294
000680 00 00 00 c0 76 e8 8c bf 00 00 00 20 f3 2f 7a bf
       -0.014115264639258385 -0.006393384654074907
000690 00 00 00 e0 33 f7 8e 3f 00 00 00 80 be b6 9f 3f
       0.015119939111173153 0.030970551073551178
0006a0 00 00 00 20 67 71 a5 3f 00 00 00 20 39 95 91 3f
       0.04188081994652748 0.017170803621411324
0006b0 00 00 00 60 02 3d aa 3f 00 00 00 60 81 d3 90 bf
       0.05124671384692192 -0.01643182896077633
0006c0 00 00 00 20 10 96 a2 bf 00 00 00 c0 50 a8 93 3f
       -0.036301139742136 0.019196759909391403
0006d0 00 00 00 60 98 c1 82 bf 00 00 00 e0 14 be a3 bf
       -0.009158316068351269 -0.03855958208441734
0006e0 00 00 00 00 e7 96 a3 3f 00 00 00 80 32 f8 8a bf
       0.03826066851615906 -0.013168711215257645
0006f0 00 00 00 e0 0e 4c 92 bf 00 00 00 e0 dc 1b 4c 3f
       -0.01786826364696026 0.0008578136912547052
000700 00 00 00 00 f4 0f 63 bf 00 00 00 60 0f 6b 9d bf
       -0.0023269429802894592 -0.02872871421277523
000710 00 00 00 40 aa cc 7a 3f 00 00 00 c0 54 a5 9f 3f
       0.006542840041220188 0.030904125422239304
000720 00 00 00 20 66 dc 98 bf 00 00 00 00 73 55 98 bf
       -0.02427825517952442 -0.023763462901115417
000730 00 00 00 40 f9 56 6f 3f 00 00 00 80 dd 46 b1 3f
       0.0038256519474089146 0.06748756766319275
000740 00 00 00 a0 0a 43 7c bf 00 00 00 80 b4 47 72 3f
       -0.00689987326040864 0.004462914541363716
000750 00 00 00 e0 55 3a 8c bf 00 00 00 60 8f 90 9b bf
       -0.013783141039311886 -0.026918640360236168
000760 00 00 00 c0 de 90 81 bf 00 00 00 a0 13 74 93 bf
       -0.008577099069952965 -0.01899748481810093
000770 00 00 00 40 b0 3e 8c bf 00 00 00 40 10 4b 96 3f
       -0.013791443780064583 0.021770719438791275
000780 00 00 00 60 17 07 a8 bf 00 00 00 60 0a d9 84 3f
       -0.04692910239100456 0.010179596953094006
000790 00 00 00 40 67 26 a9 bf 00 00 00 40 bd bd 90 bf
       -0.04912111908197403 -0.01634879782795906
0007a0 00 00 00 20 b2 b3 91 3f 00 00 00 e0 57 64 55 3f
       0.01728704757988453 0.0013056619791314006
0007b0 00 00 00 60 cd 59 48 bf 00 00 00 80 33 8d 87 bf
       -0.0007431271369569004 -0.011499788612127304
0007c0 00 00 00 a0 8c 92 93 3f 00 00 00 40 59 63 89 bf
       0.019113728776574135 -0.012396523728966713
0007d0 00 00 00 a0 9f 32 98 bf 00 00 00 c0 bc 4d 94 3f
       -0.023630613461136818 0.019827794283628464
0007e0 00 00 00 a0 e3 6d 96 3f 00 00 00 a0 76 33 99 bf
       0.021903568878769875 -0.024610379710793495
0007f0 00 00 00 20 a8 ed 6d bf 00 00 00 40 e2 6e 82 3f
       -0.003653362626209855 0.009000556543469429
