embeddings/DVD player_embedding.npy (npy, 24704 bytes, 1 tensors)

array f8 [3072]
000000 00 00 00 40 39 c6 91 bf 00 00 00 60 e8 cc 9b 3f
       -0.017357725650072098 0.02714884839951992
000010 00 00 00 20 fa b3 7a bf 00 00 00 a0 88 92 89 3f
       -0.0065192957408726215 0.01248652208596468
000020 00 00 00 80 ac 0d a0 bf 00 00 00 80 61 ff 95 3f
       -0.03135432302951813 0.021482013165950775
000030 00 00 00 e0 6d 4e 89 bf 00 00 00 60 fb 2c af 3f
       -0.012356623075902462 0.06089005991816521
000040 00 00 00 c0 1c 82 9f 3f 00 00 00 e0 2a d1 b4 3f
       0.030769776552915573 0.08131664246320724
000050 00 00 00 40 fd ff 74 bf 00 00 00 20 cb 96 92 bf
       -0.005126942880451679 -0.01815335638821125
000060 00 00 00 a0 cf 2e 75 bf 00 00 00 c0 eb be 8d bf
       -0.005171595606952906 -0.0145243089646101
000070 00 00 00 c0 14 25 87 bf 00 00 00 00 ca f0 91 bf
       -0.011301195248961449 -0.017520099878311157
000080 00 00 00 a0 f7 c1 91 bf 00 00 00 00 f1 b0 81 bf
       -0.01734148897230625 -0.008638270199298859
000090 00 00 00 40 2e f0 92 bf 00 00 00 c0 f8 67 92 3f
       -0.018494341522455215 0.017974745482206345
0000a0 00 00 00 e0 0a c8 9c 3f 00 00 00 60 8f 76 9d bf
       0.028106851503252983 -0.028772583231329918
0000b0 00 00 00 20 38 20 71 3f 00 00 00 40 fd 2c a1 3f
       0.004181117285043001 0.033546365797519684
0000c0 00 00 00 60 56 29 57 3f 00 00 00 e0 9e 11 8b 3f
       0.0014136641984805465 0.013217202387750149
0000d0 00 00 00 80 2e 96 7a bf 00 00 00 c0 f5 ee 7b bf
       -0.006490880623459816 -0.0068196868523955345
0000e0 00 00 00 c0 6b d5 8b bf 00 00 00 40 a4 d6 a2 bf
       -0.013590661808848381 -0.03679383546113968
0000f0 00 00 00 40 07 30 a3 3f 00 00 00 c0 6b d5 9b 3f
       0.03747580200433731 0.027181323617696762
000100 00 00 00 80 7c e9 9d bf 00 00 00 80 3a 6c 92 3f
       -0.02921099215745926 0.01799098402261734
000110 00 00 00 80 55 29 9e bf 00 00 00 e0 0c 9b a2 3f
       -0.0294545516371727 0.03633918985724449
000120 00 00 00 c0 82 81 92 3f 00 00 00 40 b7 36 a6 bf
       0.01807216927409172 -0.043386198580265045
000130 00 00 00 a0 26 df 79 3f 00 00 00 80 4d cc 85 3f
       0.006316328886896372 0.010643582791090012
000140 00 00 00 80 37 c6 8f bf 00 00 00 00 6e 21 9d bf
       -0.015514787286520004 -0.028447836637496948
000150 00 00 00 e0 3b 8b 3e 3f 00 00 00 60 fe d2 a1 3f
       0.00046606265823356807 0.03481287881731987
000160 00 00 00 80 4c f9 78 3f 00 00 00 60 e9 9f 98 3f
       0.006097124889492989 0.02404751442372799
000170 00 00 00 c0 8a 0b 87 3f 00 00 00 60 fb 2c 9f 3f
       0.01125248335301876 0.030445029959082603
000180 00 00 00 00 ac 8d a3 bf 00 00 00 20 2b 77 8c 3f
       -0.038190245628356934 0.01389917079359293
000190 00 00 00 40 c2 39 71 bf 00 00 00 20 48 07 8e bf
       -0.0042054736986756325 -0.01466232631355524
0001a0 00 00 00 60 61 2c a2 bf 00 00 00 40 cb 69 96 3f
       -0.0354948453605175 0.021887946873903275
0001b0 00 00 00 60 87 19 65 3f 00 00 00 a0 80 08 55 bf
       0.0025756496470421553 -0.0012837654212489724
0001c0 00 00 00 e0 aa e7 82 bf 00 00 00 80 75 32 b6 3f
       -0.009230933152139187 0.08670744299888611
0001d0 00 00 00 c0 9d 6b 9a bf 00 00 00 40 41 50 86 bf
       -0.025801148265600204 -0.01089526154100895
0001e0 00 00 00 00 3f 04 55 bf 00 00 00 80 d7 e5 85 bf
       -0.001282750628888607 -0.0106922946870327
0001f0 00 00 00 e0 a1 8a 91 3f 00 00 00 a0 4b 00 a1 3f
       0.017130402848124504 0.03320537880063057
000200 00 00 00 40 fd ff 94 bf 00 00 00 80 7d bc 7a 3f
       -0.020507771521806717 0.006527414545416832
000210 00 00 00 a0 b9 55 8b 3f 00 00 00 00 64 f1 ae 3f
       0.013347101397812366 0.06043541431427002
000220 00 00 00 40 06 5d 76 bf 00 00 00 40 3e d7 9f 3f
       -0.005459808744490147 0.031094525009393692
000230 00 00 00 20 ab 8d 9a bf 00 00 00 80 45 42 a1 bf
       -0.025931047275662422 -0.033708736300468445
000240 00 00 00 c0 46 bb 85 bf 00 00 00 40 18 ea 9c 3f
       -0.01061110757291317 0.0282367505133152
000250 00 00 00 c0 09 22 8c 3f 00 00 00 e0 f5 c1 8f bf
       0.013736797496676445 -0.015506668947637081
000260 00 00 00 20 83 fa 9d bf 00 00 00 40 a2 03 8d 3f
       -0.029275940731167793 0.014167087152600288
000270 00 00 00 a0 76 05 73 3f 00 00 00 20 ee 11 40 3f
       0.004643882159143686 0.0004904186935164034
000280 00 00 00 20 c7 51 a0 3f 00 00 00 e0 15 cb 97 bf
       0.0318739153444767 -0.02323564700782299
000290 00 00 00 20 dc 50 9c bf 00 00 00 40 85 73 7b bf
       -0.027652205899357796 -0.006701965816318989
0002a0 00 00 00 20 ef b0 9f bf 00 00 00 40 1a 90 76 3f
       -0.03094838745892048 0.005508520640432835
0002b0 00 00 00 20 f2 56 82 bf 00 00 00 40 68 10 b6 bf
       -0.008954898454248905 -0.08618785440921783
0002c0 00 00 00 80 3a 6c 82 bf 00 00 00 00 f0 dd 94 3f
       -0.00899549201130867 0.02037787437438965
0002d0 00 00 00 a0 4f 45 93 3f 00 00 00 40 71 40 ab 3f
       0.018819088116288185 0.053226031363010406
0002e0 00 00 00 00 6e 21 ad 3f 00 00 00 40 37 20 88 bf
       0.056895673274993896 -0.01178019680082798
0002f0 00 00 00 e0 9d 3e 5e bf 00 00 00 c0 57 75 5f bf
       -0.0018459836719557643 -0.0019200665410608053
000300 00 00 00 60 6b 5c a0 bf 00 00 00 40 cd 0f 60 bf
       -0.03195510432124138 -0.0019606598652899265
000310 00 00 00 c0 6d 7b 95 3f 00 00 00 40 d3 c6 8e bf
       0.0209786556661129 -0.015027666464447975
000320 00 00 00 80 62 d2 82 bf 00 00 00 e0 f8 3a a6 bf
       -0.009190339595079422 -0.04341867193579674
000330 00 00 00 a0 a7 c8 84 3f 00 00 00 80 11 06 79 bf
       0.01014834363013506 -0.006109302863478661
000340 00 00 00 20 e8 26 94 bf 00 00 00 60 92 ef a3 3f
       -0.019679667428135872 0.03893716260790825
000350 00 00 00 a0 6d a8 61 bf 00 00 00 20 b6 90 65 bf
       -0.0021555081475526094 -0.0026324803475290537
000360 00 00 00 a0 9b f2 8c 3f 00 00 00 a0 45 15 b5 bf
       0.014134612865746021 -0.08235583454370499
000370 00 00 00 60 5f 86 88 bf 00 00 00 a0 94 3b 75 3f
       -0.011975045315921307 0.005183773580938578
000380 00 00 00 00 ab ba a6 3f 00 00 00 c0 8b de 93 bf
       0.044392913579940796 -0.01940363273024559
000390 00 00 00 60 4b 53 88 3f 00 00 00 00 e7 80 a3 3f
       0.01187762152403593 0.03809282183647156
0003a0 00 00 00 a0 76 05 43 3f 00 00 00 c0 27 85 7a bf
       0.0005804852698929608 -0.006474643014371395
0003b0 00 00 00 60 c2 df 88 3f 00 00 00 20 2c 4a 89 bf
       0.012145536951720715 -0.012348503805696964
0003c0 00 00 00 20 29 05 90 3f 00 00 00 40 56 56 a3 bf
       0.015644686296582222 -0.03776807337999344
0003d0 00 00 00 c0 75 d8 6d 3f 00 00 00 40 67 10 7d 3f
       0.003643255215138197 0.007095721550285816
0003e0 00 00 00 20 f2 56 a2 3f 00 00 00 e0 3c 8b 97 3f
       0.03581959381699562 0.02299208752810955
0003f0 00 00 00 c0 78 7e a0 bf 00 00 00 e0 17 71 91 3f
       -0.032214902341365814 0.017032979056239128
000400 00 00 00 40 cb 69 86 3f 00 00 00 00 d2 4d 9a bf
       0.010943973436951637 -0.025687485933303833
000410 00 00 00 20 06 8a b2 bf 00 00 00 80 58 cf b0 3f
       -0.07241857796907425 0.06566384434700012
000420 00 00 00 00 2c a4 a1 bf 00 00 00 e0 b4 17 91 3f
       -0.03445565700531006 0.016691995784640312
000430 00 00 00 20 d3 20 97 3f 00 00 00 e0 76 7e 9e 3f
       0.02258615382015705 0.02977929823100567
000440 00 00 00 c0 30 e2 9b bf 00 00 00 00 52 64 98 bf
       -0.02723003551363945 -0.023820191621780396
000450 00 00 00 60 a5 7c 93 3f 00 00 00 40 86 46 98 3f
       0.019030174240469933 0.023706529289484024
000460 00 00 00 80 ea 45 89 bf 00 00 00 c0 f7 94 85 bf
       -0.012340385466814041 -0.010538039728999138
000470 00 00 00 80 d8 b8 92 3f 00 00 00 e0 33 2e 76 3f
       0.018283255398273468 0.00541515601798892
000480 00 00 00 e0 09 f5 9f bf 00 00 00 60 a3 a9 9d 3f
       -0.031208185479044914 0.02896743081510067
000490 00 00 00 20 54 dd 85 3f 00 00 00 00 e8 53 90 3f
       0.010676057077944279 0.015945076942443848
0004a0 00 00 00 40 73 e6 a4 bf 00 00 00 20 ab 8d 9a 3f
       -0.04082069545984268 0.025931047275662422
0004b0 00 00 00 e0 96 b4 12 3f 00 00 00 40 37 20 98 bf
       7.13555418769829e-05 -0.02356039360165596
0004c0 00 00 00 80 87 ec 98 bf 00 00 00 a0 a7 c8 94 bf
       -0.024339787662029266 -0.02029668726027012
0004d0 00 00 00 80 cf 5b a1 3f 00 00 00 40 f2 29 a6 3f
       0.0339035838842392 0.04328877478837967
0004e0 00 00 00 c0 32 88 75 bf 00 00 00 20 79 f7 9b 3f
       -0.005256841890513897 0.02731122262775898
0004f0 00 00 00 80 41 f6 9d bf 00 00 00 e0 3b 8b 8e 3f
       -0.029259704053401947 0.014914005063474178
000500 00 00 00 60 e0 6f 83 3f 00 00 00 80 6c 02 91 3f
       0.009490731172263622 0.016610808670520782
000510 00 00 00 e0 3b 8b 9e bf 00 00 00 60 b8 dc 86 bf
       -0.029828010126948357 -0.011163177900016308
000520 00 00 00 e0 b3 44 74 3f 00 00 00 a0 1d af 94 bf
       0.004948332440108061 -0.020199263468384743
000530 00 00 00 60 b6 36 9d 3f 00 00 00 40 e8 f9 67 bf
       0.028529023751616478 -0.002926782239228487
000540 00 00 00 20 5c 67 8a bf 00 00 00 40 2a ab 90 3f
       -0.012892455793917179 0.016277942806482315
000550 00 00 00 20 6f c7 8d bf 00 00 00 20 71 6d 87 3f
       -0.01454054657369852 0.01143921259790659
000560 00 00 00 20 0f e7 93 3f 00 00 00 20 70 9a 6a 3f
       0.019436107948422432 0.0032474698964506388
000570 00 00 00 00 d2 7a 86 bf 00 00 00 80 5e 86 7f 3f
       -0.010976448655128479 0.007696503773331642
000580 00 00 00 60 42 f6 a6 3f 00 00 00 00 84 fa 96 3f
       0.04484755918383598 0.022440016269683838
000590 00 00 00 80 d5 3f 9c bf 00 00 00 00 52 64 28 3f
       -0.02758725732564926 0.00018609524704515934
0005a0 00 00 00 00 6e 21 8d bf 00 00 00 00 0f 14 90 bf
       -0.014223918318748474 -0.015701517462730408
0005b0 00 00 00 60 eb 45 72 3f 00 00 00 80 75 32 a6 bf
       0.004461211618036032 -0.043353721499443054
0005c0 00 00 00 e0 46 8e 89 bf 00 00 00 00 b4 17 58 3f
       -0.012478402815759182 0.0014704950153827667
0005d0 00 00 00 80 b9 82 87 3f 00 00 00 c0 ba fb 9b bf
       0.011479806154966354 -0.027327459305524826
0005e0 00 00 00 00 0f 14 80 bf 00 00 00 20 52 37 8c bf
       -0.007850758731365204 -0.01377739105373621
0005f0 00 00 00 a0 76 d8 76 3f 00 00 00 20 6f c7 7d bf
       0.005577529314905405 -0.00727027328684926
000600 00 00 00 60 f5 75 30 bf 00 00 00 c0 da 04 94 bf
       -0.00025117149925790727 -0.019549768418073654
000610 00 00 00 e0 2a d1 74 3f 00 00 00 a0 32 b5 91 bf
       0.005082290153950453 -0.017292777076363564
000620 00 00 00 c0 f4 22 a0 bf 00 00 00 60 60 59 85 3f
       -0.03151669353246689 0.010424378328025341
000630 00 00 00 60 2d f0 99 bf 00 00 00 e0 76 7e 1e bf
       -0.02533026598393917 -0.00011632538371486589
000640 00 00 00 00 5b c1 59 bf 00 00 00 80 1c 09 84 bf
       -0.0015719784423708916 -0.009783003479242325
000650 00 00 00 a0 ba 28 88 3f 00 00 00 c0 32 88 95 3f
       0.011796434409916401 0.021027367562055588
000660 00 00 00 c0 3c b8 73 bf 00 00 00 40 35 7a 8e 3f
       -0.0048143742606043816 0.014881530776619911
000670 00 00 00 c0 13 52 6a 3f 00 00 00 80 93 95 a4 3f
       0.0032129655592143536 0.040203675627708435
000680 00 00 00 60 b6 36 8d 3f 00 00 00 40 fb 59 7b bf
       0.014264511875808239 -0.006677609868347645
000690 00 00 00 40 87 46 91 3f 00 00 00 60 22 ed 9e 3f
       0.016870606690645218 0.030201470479369164
0006a0 00 00 00 c0 ba fb 6b bf 00 00 00 a0 64 4b a0 3f
       -0.0034159324131906033 0.03182520344853401
0006b0 00 00 00 60 1a 63 9a 3f 00 00 00 00 c9 1d 95 bf
       0.025768673047423363 -0.02062143385410309
0006c0 00 00 00 80 d8 b8 a2 bf 00 00 00 60 92 ef a3 3f
       -0.036566510796546936 0.03893716260790825
0006d0 00 00 00 c0 6a 09 80 bf 00 00 00 40 df 9c 96 bf
       -0.007830461487174034 -0.022082794457674026
0006e0 00 00 00 60 74 8c 95 3f 00 00 00 e0 94 e1 9c bf
       0.021043604239821434 -0.02820427529513836
0006f0 00 00 00 a0 4f 45 a3 bf 00 00 00 a0 ff 4b 66 3f
       -0.03763817623257637 0.0027217858005315065
000700 00 00 00 40 b7 36 86 3f 00 00 00 00 01 98 9e bf
       0.010846549645066261 -0.029876723885536194
000710 00 00 00 60 a5 7c 83 3f 00 00 00 60 d4 99 9b 3f
       0.009515087120234966 0.02695400081574917
000720 00 00 00 80 ac 0d a0 3f 00 00 00 a0 8a 38 83 3f
       0.03135432302951813 0.009385188110172749
000730 00 00 00 a0 a5 f5 6e bf 00 00 00 00 3e 31 a8 3f
       -0.003779242979362607 0.04725068807601929
000740 00 00 00 40 85 73 7b bf 00 00 00 a0 a8 9b 81 bf
       -0.006701965816318989 -0.008597676642239094
000750 00 00 00 60 e0 6f 83 bf 00 00 00 00 db aa 8b bf
       -0.009490731172263622 -0.013509474694728851
000760 00 00 00 40 db 84 90 3f 00 00 00 80 06 03 9e bf
       0.01613180711865425 -0.029308415949344635
000770 00 00 00 e0 e5 da 92 bf 00 00 00 20 98 2d 47 3f
       -0.018413154408335686 0.0007073395536281168
000780 00 00 00 a0 39 3f ad bf 00 00 00 60 ac 06 8f bf
       -0.05712299421429634 -0.01514944713562727
000790 00 00 00 e0 6f f4 92 bf 00 00 00 80 31 0f 61 3f
       -0.01851057820022106 0.002082440070807934
0007a0 00 00 00 40 74 b9 91 3f 00 00 00 40 38 f3 94 3f
       0.01730901375412941 0.02045905962586403
0007b0 00 00 00 e0 7e 3c 90 3f 00 00 00 a0 ec be 86 3f
       0.01585577242076397 0.011106346733868122
0007c0 00 00 00 a0 31 e2 a4 3f 00 00 00 a0 80 08 75 bf
       0.04078822210431099 -0.00513506168499589
0007d0 00 00 00 00 51 91 6b bf 00 00 00 20 7c 70 92 3f
       -0.003365190699696541 0.018007220700383186
0007e0 00 00 00 80 24 66 5c bf 00 00 00 a0 6c d5 74 bf
       -0.0017333370633423328 -0.005086349789053202
0007f0 00 00 00 00 ac 8d 73 3f 00 00 00 e0 db aa 94 3f
       0.004773780703544617 0.020183024927973747
