embeddings/model_embedding.npy (npy, 24704 bytes, 1 tensors)

array f8 [3072]
00000000: 0000 0000 73c7 97bf 0000 0080 48ad 853f
00000010: 0000 0040 76b9 9cbf 0000 00c0 ffee 683f
00000020: 0000 00c0 14e7 723f 0000 0020 5965 8e3f
00000030: 0000 00c0 9043 64bf 0000 00c0 c3cc a13f
00000040: 0000 00a0 6fd5 92bf 0000 0020 42de a23f
00000050: 0000 00a0 49fd 71bf 0000 0000 c94b 88bf
00000060: 0000 0060 6ce5 8dbf 0000 0080 14d4 9bbf
00000070: 0000 00a0 4620 843f 0000 00e0 d8d9 a23f
00000080: 0000 0000 d2e2 81bf 0000 0020 418e 66bf
00000090: 0000 00c0 5573 99bf 0000 0000 ec46 9bbf
000000a0: 0000 00e0 9472 8ebf 0000 00c0 5add 48bf
000000b0: 0000 0000 4def 96bf 0000 0080 555e a23f
000000c0: 0000 00c0 786e 8c3f 0000 0020 e97c a4bf
000000d0: 0000 0080 4a3a 87bf 0000 00e0 a96a 983f
000000e0: 0000 0000 a1e6 a5bf 0000 0040 489a 9ebf
000000f0: 0000 00c0 ffed 903f 0000 00a0 381f ab3f
00000100: 0000 0080 45d0 87bf 0000 0080 ffd9 513f
00000110: 0000 00c0 219a afbf 0000 0040 3a97 953f
00000120: 0000 00e0 28a4 97bf 0000 0080 aebf 80bf
00000130: 0000 00a0 bd12 86bf 0000 00c0 2f9a 803f
00000140: 0000 00c0 1f0d 9e3f 0000 0000 d74c 91bf
00000150: 0000 00c0 bcd5 a0bf 0000 0020 9712 873f
00000160: 0000 0020 c531 85bf 0000 0000 45a8 993f
00000170: 0000 0080 ffd9 813f 0000 0060 8797 533f
00000180: 0000 0080 7859 85bf 0000 00e0 5159 66bf
00000190: 0000 00e0 e2ad 713f 0000 0020 418e 66bf
000001a0: 0000 0040 634c 943f 0000 00a0 d07f 8e3f
000001b0: 0000 0080 cf2d b2bf 0000 00c0 8d66 663f
000001c0: 0000 00a0 2325 913f 0000 0060 742c 9b3f
000001d0: 0000 00c0 2d0e 97bf 0000 0060 61bf 823f
000001e0: 0000 0060 7f50 66bf 0000 0000 f8ba a2bf
000001f0: 0000 0020 4748 92bf 0000 0020 1bb6 753f
00000200: 0000 0080 73ef 753f 0000 0000 a7a0 813f
00000210: 0000 00e0 ad97 523f 0000 00a0 771c 903f
00000220: 0000 00c0 6097 94bf 0000 00a0 edbe a53f
00000230: 0000 0000 c4e1 98bf 0000 0080 4065 90bf
00000240: 0000 0000 ac0a 913f 0000 0020 77f4 513f
00000250: 0000 00e0 4e7b 803f 0000 00e0 5b2d 853f
00000260: 0000 00a0 2048 a33f 0000 00a0 33b5 8b3f
00000270: 0000 00e0 d8d9 42bf 0000 00a0 9f81 823f
00000280: 0000 00a0 8ff3 973f 0000 0060 6fc2 9b3f
00000290: 0000 0060 8c01 933f 0000 0040 259f ab3f
000002a0: 0000 00a0 2604 9fbf 0000 0040 0431 2abf
000002b0: 0000 0000 bf77 993f 0000 0000 c4e0 c0bf
000002c0: 0000 0020 61ac 8bbf 0000 0060 ba20 913f
000002d0: 0000 0080 ffd9 41bf 0000 00a0 6fd5 92bf
000002e0: 0000 0000 605c 6fbf 0000 0040 808d 8b3f
000002f0: 0000 0080 3265 8fbf 0000 00a0 8a89 88bf
00000300: 0000 00a0 8939 7cbf 0000 00c0 e43a a33f
00000310: 0000 0020 6489 99bf 0000 00a0 0e2d 873f
00000320: 0000 0060 f088 9cbf 0000 0080 42f3 993f
00000330: 0000 00a0 7162 943f 0000 0060 4cc7 78bf
00000340: 0000 00e0 ad97 a23f 0000 0040 9b3f 81bf
00000350: 0000 00e0 0886 823f 0000 00a0 3128 aa3f
00000360: 0000 0020 9dcc 72bf 0000 00c0 110a 753f
00000370: 0000 0000 f8ba a23f 0000 00c0 68de 91bf
00000380: 0000 0020 11e2 96bf 0000 00c0 8d66 86bf
00000390: 0000 00c0 a969 60bf 0000 0020 11e2 863f
000003a0: 0000 0000 0ad8 9ebf 0000 00a0 c559 93bf
000003b0: 0000 0080 cc50 a43f 0000 0060 a24a a1bf
000003c0: 0000 0060 6fc2 9b3f 0000 0060 2b59 97bf
000003d0: 0000 0060 1c1a 91bf 0000 0060 5131 88bf
000003e0: 0000 0000 22ad 963f 0000 0080 ec6e 993f
000003f0: 0000 0060 540e 96bf 0000 0020 3100 9cbf
00000400: 0000 0040 2de6 78bf 0000 00c0 e9a4 82bf
00000410: 0000 0000 7981 63bf 0000 0000 46f8 95bf
00000420: 0000 0000 70ea 993f 0000 00a0 e00c 913f
00000430: 0000 0000 ffb1 433f 0000 00c0 866f 953f
00000440: 0000 0040 1232 a33f 0000 0020 d89e 7dbf
00000450: 0000 0020 62fc 773f 0000 0080 a0be 87bf
00000460: 0000 00a0 3bfb a0bf 0000 0000 258a a4bf
00000470: 0000 00a0 81f2 9e3f 0000 00c0 6097 a4bf
00000480: 0000 0000 2dd1 813f 0000 0060 61bf 92bf
00000490: 0000 00e0 87bf a13f 0000 00e0 8f08 8f3f
000004a0: 0000 0040 3d74 533f 0000 00c0 5700 9bbf
000004b0: 0000 0080 cc50 843f 0000 0060 4e54 9abf
000004c0: 0000 0020 3946 71bf 0000 0000 0002 a03f
000004d0: 0000 0000 46f8 95bf 0000 00c0 2cbe 7abf
000004e0: 0000 0060 ad6f 84bf 0000 0080 aebf 903f
000004f0: 0000 0000 53a9 623f 0000 0080 7b36 a33f
00000500: 0000 00c0 09c3 973f 0000 00c0 125a a1bf
00000510: 0000 00c0 5add 58bf 0000 0080 48ad f5be
00000520: 0000 00a0 396f a7bf 0000 00e0 fbd4 85bf
00000530: 0000 0080 1d6b a53f 0000 0060 d06a 87bf
00000540: 0000 0060 085e 94bf 0000 0080 7e13 a13f
00000550: 0000 0060 b2d9 a3bf 0000 0060 f641 203f
00000560: 0000 0000 1a65 713f 0000 0060 cab0 7bbf
00000570: 0000 0020 03e1 9dbf 0000 0080 37cf 9e3f
00000580: 0000 0060 5ac8 a13f 0000 00c0 09c3 773f
00000590: 0000 0000 9c7c 863f 0000 00c0 e9a4 823f
000005a0: 0000 0000 5ecf 9d3f 0000 00c0 14e7 923f
000005b0: 0000 0020 bb5d 86bf 0000 0060 475c a1bf
000005c0: 0000 00c0 3278 763f 0000 0040 606f a63f
000005d0: 0000 00e0 2b81 b53f 0000 0080 757c a73f
000005e0: 0000 0040 cf1a 8bbf 0000 0000 eab9 99bf
000005f0: 0000 0080 f91f 76bf 0000 0020 eee6 733f
00000600: 0000 0060 84ba 75bf 0000 00e0 05a9 64bf
00000610: 0000 0060 677b 7ebf 0000 0000 76a4 a5bf
00000620: 0000 0000 999f 783f 0000 0000 dcb6 a0bf
00000630: 0000 0080 555e a2bf 0000 0040 0dc8 63bf
00000640: 0000 00a0 0ddd 9a3f 0000 00a0 10b9 a0bf
00000650: 0000 00a0 6cf8 943f 0000 0060 cab0 9bbf
00000660: 0000 0080 c973 663f 0000 0080 c12b 91bf
00000670: 0000 0020 f62d 913f 0000 0060 729e a1bf
00000680: 0000 0080 14d4 5b3f 0000 0060 03f4 94bf
00000690: 0000 0000 a650 853f 0000 0080 b9e5 7bbf
000006a0: 0000 0000 1789 8b3f 0000 0060 f5f2 9b3f
000006b0: 0000 0080 6211 8fbf 0000 0060 7709 79bf
000006c0: 0000 00e0 1539 9fbf 0000 0020 3c24 97bf
000006d0: 0000 0060 db8e 723f 0000 0000 999f a8bf
000006e0: 0000 0020 b039 8b3f 0000 0000 1a66 89bf
000006f0: 0000 0040 f90c 7f3f 0000 00e0 7f78 84bf
00000700: 0000 0080 fa6f 62bf 0000 00c0 de80 773f
00000710: 0000 00c0 0736 863f 0000 0080 cedd 853f
00000720: 0000 00a0 4620 743f 0000 0060 84ba 853f
00000730: 0000 0040 352d 86bf 0000 00c0 b33e 47bf
00000740: 0000 00c0 37e2 95bf 0000 0000 0ad8 6ebf
00000750: 0000 0080 930d 9bbf 0000 0080 1c1b 993f
00000760: 0000 0000 2020 853f 0000 0000 bf76 a1bf
00000770: 0000 00e0 cdb5 873f 0000 00e0 7f78 943f
00000780: 0000 00e0 2339 703f 0000 0080 555e 92bf
00000790: 0000 0040 b9d0 a4bf 0000 0040 0c78 a7bf
000007a0: 0000 0060 e3d7 9f3f 0000 0000 2b44 a03f
000007b0: 0000 0020 8a61 6abf 0000 0060 6ce5 6dbf
000007c0: 0000 00a0 b47b 9c3f 0000 00c0 8242 6b3f
000007d0: 0000 00c0 a969 90bf 0000 0060 1ea8 5a3f
000007e0: 0000 0020 366a 7bbf 0000 0060 cd8d 993f
000007f0: 0000 00e0 5436 a43f 0000 0060 cab0 6b3f
-0.023221775889396667 0.01058441773056984 -0.028051231056451797 0.0030436511151492596 0.004614907316863537 0.014841743744909763 -0.0024736239574849606 0.03476535528898239
-0.018392318859696388 0.036851946264505386 -0.0043919445015490055 -0.01186329871416092 -0.014597746543586254 -0.027176208794116974 0.009827186353504658 0.03681829199194908
-0.008733406662940979 -0.0027533790562301874 -0.024854030460119247 -0.026637732982635498 -0.014866984449326992 -0.0007588093867525458 -0.0223972350358963 0.03587596118450165
0.013882583007216454 -0.04001549258828163 -0.011341650038957596 0.023844389244914055 -0.04277518391609192 -0.029885414987802505 0.01653289422392845 0.05297257378697395
-0.011627715080976486 0.0010895724408328533 -0.061722807586193085 0.021084699779748917 -0.0230871569365263 -0.00817810371518135 -0.010777932591736317 0.008106587454676628
0.02934693917632103 -0.016894683241844177 -0.03288068622350693 0.011265926994383335 -0.010348835028707981 0.025055959820747375 0.008716579526662827 0.0011957952519878745
-0.010424558073282242 -0.0027281378861516714 0.004316221456974745 -0.0027533790562301874 0.01982264593243599 0.01489222515374422 -0.0710115134716034 0.0027344482950866222
0.016743237152695656 0.026536768302321434 -0.02251502498984337 0.009154091589152813 -0.0027239311020821333 -0.03658270835876465 -0.017853843048214912 0.005300622899085283
0.005355311557650566 0.008607201278209686 0.0011347959516569972 0.015733594074845314 -0.02010871097445488 0.042472291737794876 -0.02429872751235962 -0.016011245548725128
0.016642272472381592 0.0010958827333524823 0.00804769154638052 0.010340421460568905 0.0376596637070179 0.013529208488762379 -0.0005752858123742044 0.009036299772560596
0.02339004911482334 0.027108898386359215 0.01856059394776821 0.05394855886697769 -0.030289271846413612 -0.00019982506637461483 0.0248708575963974 -0.13185930252075195
-0.013512381352484226 0.016726410016417503 -0.0005447862204164267 -0.018392318859696388 -0.0038282275199890137 0.013453485444188118 -0.015329737216234207 -0.011981089599430561
-0.006890809629112482 0.037558697164058685 -0.02493816800415516 0.011316408403217793 -0.02786613069474697 0.025342024862766266 0.0199067834764719 -0.006049440708011389
0.03631347045302391 -0.00842210091650486 0.009044713340699673 0.05108790472149849 -0.004589666146785021 0.00513655599206686 0.03658270835876465 -0.017449986189603806
-0.022346751764416695 -0.010937793180346489 -0.00200350908562541 0.011173375882208347 -0.03012099862098694 -0.01889714039862156 0.039678946137428284 -0.0337725393474102
0.027108898386359215 -0.022801091894507408 -0.016701167449355125 -0.011812816374003887 0.022144824266433716 0.024837203323841095 -0.02153903804719448 -0.027344482019543648
-0.006078888662159443 -0.009103609248995781 -0.00238107331097126 -0.02145490050315857 0.02530837059020996 0.016650686040520668 0.0006010527722537518 0.020933251827955246
0.037491388618946075 -0.007231563795357943 0.005855925846844912 -0.011594060808420181 -0.033166754990816116 -0.040116459131240845 0.030221963301301003 -0.04021742194890976
0.008699752390384674 -0.018308183178305626 0.03466438874602318 0.015153049491345882 0.0011873815674334764 -0.02636849507689476 0.009919736534357071 -0.025712227448821068
-0.004217360634356737 0.0312652587890625 -0.02145490050315857 -0.006529021076858044 -0.00997863244265318 0.0163562074303627 0.0022780057042837143 0.03752504289150238
0.023204948753118515 -0.03389032930135727 -0.0015176187735050917 -2.0672690880019218e-05 -0.04577045515179634 -0.0106601407751441 0.04183284938335419 -0.011434200219810009
-0.01988995634019375 0.03335185348987579 -0.038770269602537155 0.0001240361452801153 0.004246808588504791 -0.006760397460311651 -0.029178665950894356 0.030087344348430634
0.03473169729113579 0.005801237188279629 0.01097986102104187 0.009103609248995781 0.029111355543136597 0.018459629267454147 -0.010920965112745762 -0.03390715643763542
0.005485723726451397 0.043818481266498566 0.08400224894285202 0.045871421694755554 -0.013234728947281837 -0.025123268365859985 -0.00540158711373806 0.004858904052525759
-0.005304829683154821 -0.00252200267277658 -0.007441905792802572 -0.04227036237716675 0.006011579185724258 -0.03264510631561279 -0.03587596118450165 -0.0024147280491888523
0.02623387612402439 -0.032661933451890945 0.02047891356050968 -0.027041589841246605 0.0027407584711909294 -0.016768477857112885 0.01677689142525196 -0.03441197797656059
0.0016985130496323109 -0.02046208642423153 0.01040773093700409 -0.006810879334807396 0.013445071876049042 0.02729400061070919 -0.01516987755894661 -0.006112543400377035
-0.03049120120704174 -0.02259916253387928 0.004530770238488913 -0.04809263348579407 0.013293624855577946 -0.012401774525642395 0.007580731995403767 -0.009995459578931332
-0.0022506611421704292 0.005738134495913982 0.010845242068171501 0.010676968842744827 0.004913593176752329 0.010609659366309643 -0.010828414931893349 -0.000709378975443542
-0.021370764821767807 -0.0037651248276233673 -0.026418976485729218 0.0245174840092659 0.010315179824829102 -0.03410908579826355 0.011577232740819454 0.019990919157862663
0.003960743080824614 -0.017937980592250824 -0.04065493494272232 -0.04583776742219925 0.031096985563635826 0.03177008032798767 -0.0032203386072069407 -0.0036494366358965635
0.027815649285912514 0.003327613230794668 -0.01602807268500328 0.0016269966727122664 -0.006693087983876467 0.02495499514043331 0.039477016776800156 0.0033801987301558256
