embeddings/MP3 player_embedding.npy (npy, 24704 bytes, 1 tensors)

array f8 [3072]
00000000: 0000 0040 2acd 9cbf 0000 0060 69fe 963f
00000010: 0000 00c0 2f93 92bf 0000 00c0 d155 88bf
00000020: 0000 0060 f707 a6bf 0000 00c0 84ac 943f
00000030: 0000 0060 30f8 a2bf 0000 0020 43d1 b13f
00000040: 0000 0080 7aa8 a43f 0000 0000 4b41 b03f
00000050: 0000 0000 f573 94bf 0000 00a0 8859 70bf
00000060: 0000 0040 6834 763f 0000 0040 583e 82bf
00000070: 0000 00e0 6029 883f 0000 0040 814e a2bf
00000080: 0000 00e0 b6f6 a3bf 0000 0020 faea a0bf
00000090: 0000 0040 1ad7 a8bf 0000 0000 b8c0 943f
000000a0: 0000 00a0 a3ce 9b3f 0000 0060 fec3 aabf
000000b0: 0000 0000 f1b0 813f 0000 0000 7d52 6dbf
000000c0: 0000 0020 1614 763f 0000 00a0 1102 7a3f
000000d0: 0000 00a0 0ef3 90bf 0000 0060 4c21 983f
000000e0: 0000 0000 774a a2bf 0000 0020 2247 87bf
000000f0: 0000 0000 ec39 853f 0000 0000 1dba 733f
00000100: 0000 0000 5149 3b3f 0000 00c0 fd5e 9a3f
00000110: 0000 00a0 5de1 acbf 0000 00a0 5b9c 84bf
00000120: 0000 00e0 e776 b23f 0000 0000 7a59 abbf
00000130: 0000 0000 1496 9b3f 0000 00e0 d6cc a4bf
00000140: 0000 00c0 2d2b 7f3f 0000 00c0 5f5f 973f
00000150: 0000 0000 9ef2 7ebf 0000 0060 d731 953f
00000160: 0000 0080 4c37 8f3f 0000 00a0 4f69 a33f
00000170: 0000 0000 613f 8fbf 0000 0080 1d1f 64bf
00000180: 0000 0020 d59d 73bf 0000 00e0 c175 8b3f
00000190: 0000 00a0 b825 753f 0000 0000 8985 8e3f
000001a0: 0000 00e0 55aa 90bf 0000 0040 ea0a a43f
000001b0: 0000 0020 98ea 83bf 0000 0000 190d 98bf
000001c0: 0000 00e0 5c66 853f 0000 0060 c2c4 b43f
000001d0: 0000 00a0 b0b5 76bf 0000 00a0 2296 703f
000001e0: 0000 0000 cc63 843f 0000 00e0 d518 8bbf
000001f0: 0000 00a0 4ba6 80bf 0000 00a0 3703 813f
00000200: 0000 0020 8084 a1bf 0000 0080 4c37 7fbf
00000210: 0000 0020 e647 51bf 0000 0040 1e9a ab3f
00000220: 0000 0060 80b0 7fbf 0000 00e0 db43 a13f
00000230: 0000 0060 162a 9dbf 0000 0040 2c35 90bf
00000240: 0000 0000 10d3 98bf 0000 00a0 8f15 a53f
00000250: 0000 0040 fbb4 a13f 0000 0000 a05a a2bf
00000260: 0000 0020 1dd0 6abf 0000 00a0 1ee9 a43f
00000270: 0000 00a0 2659 933f 0000 0020 2e7a 983f
00000280: 0000 0060 fa16 5f3f 0000 0060 8511 95bf
00000290: 0000 00a0 7abe 5b3f 0000 0000 3520 963f
000002a0: 0000 00a0 fa4f a1bf 0000 0080 a204 6b3f
000002b0: 0000 00a0 87a5 86bf 0000 0000 5e30 b6bf
000002c0: 0000 0060 4c21 68bf 0000 00a0 2659 733f
000002d0: 0000 0060 3b77 9a3f 0000 0080 f8d1 a63f
000002e0: 0000 0000 4153 973f 0000 0000 a662 ad3f
000002f0: 0000 0020 8cb7 a23f 0000 0000 a353 94bf
00000300: 0000 00a0 31d8 8a3f 0000 0020 421d 88bf
00000310: 0000 00a0 5625 98bf 0000 0040 df16 90bf
00000320: 0000 0020 fdf9 79bf 0000 00c0 2d2b 9fbf
00000330: 0000 00a0 948c a1bf 0000 0060 4565 83bf
00000340: 0000 0020 379e 80bf 0000 00a0 8c1c a33f
00000350: 0000 0080 bcd2 a03f 0000 0080 ae37 8cbf
00000360: 0000 0000 46ca 733f 0000 0040 07e8 a2bf
00000370: 0000 0020 1251 a33f 0000 0060 b691 933f
00000380: 0000 0000 382f 8f3f 0000 0040 d5b3 8abf
00000390: 0000 0040 a433 9c3f 0000 00a0 5e95 a63f
000003a0: 0000 0080 560f 61bf 0000 0060 6dab a2bf
000003b0: 0000 00c0 266f 9a3f 0000 0060 50e4 9abf
000003c0: 0000 00a0 d8fb 853f 0000 0060 7e55 b0bf
000003d0: 0000 0060 7531 683f 0000 0060 dbde 803f
000003e0: 0000 00c0 d209 923f 0000 0020 907a 953f
000003f0: 0000 00c0 4a08 8ebf 0000 0000 5d7c 8cbf
00000400: 0000 0080 8b52 723f 0000 0000 1c06 8abf
00000410: 0000 0060 04ef b0bf 0000 00c0 da79 b03f
00000420: 0000 0060 4c21 98bf 0000 0060 dbde a03f
00000430: 0000 0080 11ec 02bf 0000 00c0 1988 af3f
00000440: 0000 0040 63bd 99bf 0000 00e0 ce5c 96bf
00000450: 0000 0080 d2d0 7f3f 0000 0020 e647 513f
00000460: 0000 00a0 fa4f 91bf 0000 00a0 0c8b 7dbf
00000470: 0000 0000 4e3a a23f 0000 0020 379e 903f
00000480: 0000 0060 a765 80bf 0000 0040 323d 9b3f
00000490: 0000 0000 52fd 84bf 0000 00c0 9c12 87bf
000004a0: 0000 00e0 ee32 97bf 0000 00a0 93d8 a73f
000004b0: 0000 0020 b5c7 92bf 0000 0000 7a59 8bbf
000004c0: 0000 0020 bc83 973f 0000 0040 7b23 9cbf
000004d0: 0000 0000 59b9 893f 0000 0060 f707 963f
000004e0: 0000 00a0 0ef3 a0bf 0000 0040 27be 83bf
000004f0: 0000 00e0 fa65 a8bf 0000 0080 560f 71bf
00000500: 0000 00e0 55aa 803f 0000 00a0 e42e 973f
00000510: 0000 00a0 b771 6b3f 0000 0000 0554 81bf
00000520: 0000 0060 387e 88bf 0000 00a0 8ab4 3f3f
00000530: 0000 00c0 7009 853f 0000 00e0 b6f6 83bf
00000540: 0000 0020 72e9 8cbf 0000 0040 e956 9a3f
00000550: 0000 0060 8218 83bf 0000 0060 8e4b 94bf
00000560: 0000 0040 0f58 913f 0000 00c0 de3c 93bf
00000570: 0000 0060 d731 75bf 0000 0020 9d61 80bf
00000580: 0000 00a0 3ebf a53f 0000 0000 1187 923f
00000590: 0000 0080 560f 91bf 0000 00e0 8576 953f
000005a0: 0000 0000 e940 933f 0000 00e0 90f5 8c3f
000005b0: 0000 0080 ab28 833f 0000 00a0 4ba6 80bf
000005c0: 0000 00a0 83e2 73bf 0000 00a0 3d0b 7c3f
000005d0: 0000 0060 eee3 9d3f 0000 00a0 6b7c 81bf
000005e0: 0000 00a0 f424 8b3f 0000 0020 8393 9abf
000005f0: 0000 00c0 2f93 82bf 0000 0000 01a7 953f
00000600: 0000 00e0 8c32 9abf 0000 00c0 0d55 6ebf
00000610: 0000 00c0 58a3 a23f 0000 00a0 1d35 4bbf
00000620: 0000 0040 131b 84bf 0000 0000 b4fd a13f
00000630: 0000 0040 b11a 97bf 0000 0000 248c 8f3f
00000640: 0000 00c0 15c5 8cbf 0000 0040 7fe6 7e3f
00000650: 0000 0000 a353 a43f 0000 00e0 e6c2 783f
00000660: 0000 0060 8d97 7a3f 0000 0000 9720 833f
00000670: 0000 0020 4794 943f 0000 0020 36ea 963f
00000680: 0000 0000 f86c 56bf 0000 0000 e940 93bf
00000690: 0000 00c0 dcd4 7f3f 0000 00a0 ee1c 203f
000006a0: 0000 0040 1b8b a23f 0000 0000 f573 64bf
000006b0: 0000 0000 774a a23f 0000 0000 1c06 8abf
000006c0: 0000 0000 837d 63bf 0000 00a0 f99b 973f
000006d0: 0000 0000 0e8e 503f 0000 0000 cc63 94bf
000006e0: 0000 0040 b11a a73f 0000 0000 49d9 4c3f
000006f0: 0000 00c0 886f 97bf 0000 0060 3b77 7a3f
00000700: 0000 0080 9ff5 a1bf 0000 00c0 038a 803f
00000710: 0000 0060 033b 973f 0000 00a0 457b aa3f
00000720: 0000 0040 7fe6 2e3f 0000 00e0 074d 933f
00000730: 0000 00e0 1fb3 95bf 0000 0020 421d a83f
00000740: 0000 00a0 cb14 5bbf 0000 00c0 6013 a1bf
00000750: 0000 00c0 4645 4bbf 0000 0080 aa74 993f
00000760: 0000 00e0 3719 78bf 0000 0060 dfa1 93bf
00000770: 0000 0060 ae21 753f 0000 0020 3b61 a33f
00000780: 0000 0000 b349 a8bf 0000 0040 b11a 97bf
00000790: 0000 0080 1c6b 6abf 0000 0060 f707 86bf
000007a0: 0000 0060 a2ee 933f 0000 0040 37b4 773f
000007b0: 0000 0000 e006 943f 0000 00e0 9865 8bbf
000007c0: 0000 0020 5b37 743f 0000 0040 b11a 77bf
000007d0: 0000 00e0 7580 71bf 0000 0040 131b 943f
000007e0: 0000 0060 2f44 99bf 0000 0000 d1da 60bf
000007f0: 0000 00a0 5ae8 8a3f 0000 0060 ba54 963f
-0.028126392513513565 0.02245487831532955 -0.01813959702849388 -0.011882437393069267 -0.043029528111219406 0.020189356058835983 -0.037049781531095505 0.06959933787584305
0.04034788906574249 0.06349629163742065 -0.019973590970039368 -0.003991635981947184 0.00542107317596674 -0.008907975628972054 0.01179767306894064 -0.03575519472360611
-0.03899165615439415 -0.03304273262619972 -0.04851610213518143 0.020266413688659668 0.027155453339219093 -0.05227656289935112 0.008638270199298859 -0.00357937254011631
0.0053902496583759785 0.006349629256874323 -0.016552189365029335 0.023564523085951805 -0.035724371671676636 -0.011366144753992558 0.010364383459091187 0.004816163331270218
0.0004163573030382395 0.02575298771262169 -0.0564069040119648 -0.010063854046165943 0.0721268579363823 -0.05341702699661255 0.026939690113067627 -0.040625300258398056
0.007609537802636623 0.022824760526418686 -0.0075555965304374695 0.02069794200360775 0.015242192894220352 0.03791283443570137 -0.015257604420185089 -0.002456243149936199
-0.004789192695170641 0.013408198021352291 0.005162926856428385 0.014903135597705841 -0.01627477817237377 0.03914577513933182 -0.009724796749651432 -0.02348746359348297
0.010449147783219814 0.08112730830907822 -0.005544366780668497 0.004049430135637522 0.00995597243309021 -0.013230963610112667 -0.008129683323204517 0.008306917734444141
-0.03421402350068092 -0.007621096447110176 -0.0010547396959736943 0.05391020327806473 -0.007736684288829565 0.033720847219228745 -0.028480863198637962 -0.015827838331460953
-0.024242639541625977 0.04118012264370918 0.03458390384912491 -0.03584766387939453 -0.0032730645034462214 0.04084106162190437 0.018894771113991737 0.023903580382466316
0.0018975682323798537 -0.020574649795889854 0.001693362952210009 0.021607235074043274 -0.033813316375017166 0.0032981084659695625 -0.01105791050940752 -0.08667552471160889
-0.0029455653857439756 0.004723692778497934 0.02584545873105526 0.04457069933414459 0.022778525948524475 0.05739325284957886 0.036556605249643326 -0.019850298762321472
0.013107669539749622 -0.011774555779993534 -0.023579934611916542 -0.015712250024080276 -0.006341923493891954 -0.030438151210546494 -0.03427566960453987 -0.009470502845942974
-0.00811427179723978 0.03732718899846077 0.03285779058933258 -0.01377807930111885 0.004831574857234955 -0.03692648559808731 0.03772789612412453 0.019110536202788353
0.015226781368255615 -0.013038316741585732 0.027540747076272964 0.044108349829912186 -0.0020825089886784554 -0.036464136093854904 0.025814633816480637 -0.026261573657393456
0.010734264738857746 -0.06380452960729599 0.002953271148726344 0.008237565867602825 0.01761559769511223 0.020975353196263313 -0.01466425321996212 -0.013909079134464264
0.004473252221941948 -0.012706965208053589 -0.06614711135625839 0.06435935199260712 -0.023564523085951805 0.0329502634704113 -3.6091121728532016e-05 0.06158524006605148
-0.025136519223451614 -0.021838409826159477 0.007767507806420326 0.0010547396959736943 -0.016906658187508583 -0.007212685886770487 0.03560107946395874 0.01622854359447956
-0.008006389252841473 0.026600632816553116 -0.01024879515171051 -0.011265968903899193 -0.02265523187816143 0.046574223786592484 -0.01833994872868061 -0.013354256749153137
0.022963466122746468 -0.027479100972414017 0.012560553848743439 0.021514764055609703 -0.03310437873005867 -0.009640032425522804 -0.04765304550528526 -0.004165017977356911
0.008137389086186886 0.022639820352196693 0.0033501230645924807 -0.008461035788059235 -0.011959495954215527 0.00048378357314504683 0.010271912440657616 -0.009747914038598537
-0.014117137528955936 0.025722164660692215 -0.009324091486632824 -0.01981947384774685 0.016937483102083206 -0.01878688856959343 -0.0051744855009019375 -0.007998683489859104
0.04247470572590828 0.01809336245059967 -0.016660071909427643 0.020959941670298576 0.018802300095558167 0.014140254817903042 0.009354915469884872 -0.008129683323204517
-0.0048546926118433475 0.0068466574884951115 0.02918980084359646 -0.008538094349205494 0.013254080899059772 -0.02595333941280842 -0.00906979851424694 0.02114488184452057
-0.025583459064364433 -0.0037026661448180676 0.03640248626470566 -0.0008303064969368279 -0.009817266836762428 0.035138726234436035 -0.02256276085972786 0.01540401577949524
-0.014047784730792046 0.007544037885963917 0.039700597524642944 0.00604524789378047 0.006492187734693289 0.009339503943920135 0.020096885040402412 0.022377820685505867
-0.0013687536120414734 -0.018802300095558167 0.0077713606879115105 0.00012293255713302642 0.036217547953128815 -0.002496698871254921 0.035724371671676636 -0.012706965208053589
-0.00237918458878994 0.02305593527853489 0.0010104309767484665 -0.01991194486618042 0.04512552171945572 0.000880394596606493 -0.022886406630277634 0.006461364682763815
-0.03507708013057709 0.008075742051005363 0.022686054930090904 0.05172174051403999 0.0002357511839363724 0.018848536536097527 -0.02119111828505993 0.047098223119974136
-0.0016529072308912873 -0.03335096687078476 -0.0008322329958900809 0.02485910803079605 -0.005883425008505583 -0.0191721823066473 0.0051590739749372005 0.03785118833184242
-0.04743728041648865 -0.02256276085972786 -0.0032249027863144875 -0.010757382027804852 0.0194650050252676 0.005787101574242115 0.019557476043701172 -0.013377374969422817
0.004935604054480791 -0.005640690214931965 -0.004272900056093931 0.019634533673524857 -0.02467416785657406 -0.0020574647933244705 0.013138492591679096 0.021807586774230003
