embeddings/player_embedding.npy (npy, 24704 bytes, 1 tensors)

array f8 [3072]
000000 00 00 00 60 ab 10 52 3f 00 00 00 80 ab b4 7c 3f
       0.0011026071151718497 0.007008237764239311
000010 00 00 00 80 6e 98 82 bf 00 00 00 20 b6 88 90 bf
       -0.00907980278134346 -0.01614651270210743
000020 00 00 00 a0 8e fb a5 bf 00 00 00 00 b7 02 99 3f
       -0.042934853583574295 0.024424418807029724
000030 00 00 00 80 f5 26 94 bf 00 00 00 20 8c 7e a4 3f
       -0.01967986673116684 0.040027979761362076
000040 00 00 00 00 30 c6 6c 3f 00 00 00 c0 c1 75 af 3f
       0.003512471914291382 0.061445288360118866
000050 00 00 00 e0 34 1c 85 bf 00 00 00 40 a3 be 67 3f
       -0.010307705961167812 0.0028985203243792057
000060 00 00 00 00 91 26 a2 bf 00 00 00 20 34 9d a4 bf
       -0.035450488328933716 -0.04026186838746071
000070 00 00 00 40 c3 cf 85 bf 00 00 00 c0 ce 1d 82 bf
       -0.010650182142853737 -0.008845916017889977
000080 00 00 00 00 71 15 94 bf 00 00 00 40 79 5d 7e bf
       -0.01961304247379303 -0.00741336215287447
000090 00 00 00 c0 c5 4c a7 bf 00 00 00 c0 5f f2 8e 3f
       -0.04550760239362717 0.01511072926223278
0000a0 00 00 00 80 8a 80 a3 3f 00 00 00 e0 96 f1 aa bf
       0.038090065121650696 -0.052624430507421494
0000b0 00 00 00 a0 a1 c0 46 bf 00 00 00 80 32 f1 98 3f
       -0.0006943501648493111 0.024357594549655914
0000c0 00 00 00 00 e1 b5 97 3f 00 00 00 20 fc cc 72 3f
       0.02315475046634674 0.004590020049363375
0000d0 00 00 00 20 83 ad 99 3f 00 00 00 a0 92 7b 30 bf
       0.02507595904171467 -0.0002515061351004988
0000e0 00 00 00 80 c7 4a 98 bf 00 00 00 a0 e2 05 9e bf
       -0.023722760379314423 -0.02931932546198368
0000f0 00 00 00 60 3c e5 9e 3f 00 00 00 80 1a 32 a5 3f
       0.030171340331435204 0.041397884488105774
000100 00 00 00 c0 4c 89 93 3f 00 00 00 c0 ae 0c 94 bf
       0.019078444689512253 -0.019579630345106125
000110 00 00 00 a0 4d ac 9e bf 00 00 00 40 90 f9 86 3f
       -0.029954159632325172 0.011218192055821419
000120 00 00 00 c0 92 76 a8 3f 00 00 00 00 ae 31 9e bf
       0.047779642045497894 -0.029486387968063354
000130 00 00 00 60 37 eb 8b 3f 00 00 00 20 21 2a 79 bf
       0.013632233254611492 -0.006143693346530199
000140 00 00 00 00 01 75 90 3f 00 00 00 a0 d8 16 a0 bf
       0.01607133448123932 -0.031424302607774734
000150 00 00 00 60 25 a5 ab bf 00 00 00 00 9b 6c 7d 3f
       -0.05399433895945549 0.007183652371168137
000160 00 00 00 a0 15 8a 77 3f 00 00 00 20 db 3c a4 3f
       0.005746921990066767 0.039526794105768204
000170 00 00 00 60 ed d4 69 bf 00 00 00 c0 d3 17 75 3f
       -0.003153289435431361 0.005149676464498043
000180 00 00 00 e0 6c 9a 91 bf 00 00 00 e0 2b 4b 9a bf
       -0.01719064824283123 -0.025677381083369255
000190 00 00 00 20 18 b5 a3 3f 00 00 00 a0 b8 00 7a bf
       0.03849101439118385 -0.0063483440317213535
0001a0 00 00 00 80 da 61 6e 3f 00 00 00 20 d7 65 9c 3f
       0.00370876956731081 0.02773224003612995
0001b0 00 00 00 a0 31 20 93 3f 00 00 00 80 31 77 40 3f
       0.018677497282624245 0.0005024902056902647
0001c0 00 00 00 60 53 d3 9c 3f 00 00 00 00 0b bb 8b bf
       0.028149893507361412 -0.013540349900722504
0001d0 00 00 00 60 a7 8b af bf 00 00 00 80 fa 72 8c bf
       -0.06161234900355339 -0.013891179114580154
0001e0 00 00 00 e0 50 04 76 bf 00 00 00 60 37 47 a1 bf
       -0.005375209730118513 -0.03374646231532097
0001f0 00 00 00 c0 76 3c a2 bf 00 00 00 40 b5 b2 82 3f
       -0.03561755269765854 0.009129920974373817
000200 00 00 00 00 ef d2 5a bf 00 00 00 00 96 20 75 bf
       -0.0016372045502066612 -0.005158029496669769
000210 00 00 00 80 8f cc 7b 3f 00 00 00 c0 2c ca aa 3f
       0.006786881014704704 0.05232372134923935
000220 00 00 00 e0 50 04 96 bf 00 00 00 c0 0b 3a ac 3f
       -0.021500838920474052 0.055130355060100555
000230 00 00 00 80 ec 55 69 bf 00 00 00 a0 6d 19 72 bf
       -0.0030927294865250587 -0.004418781492859125
000240 00 00 00 40 95 f3 79 bf 00 00 00 40 ed 82 84 bf
       -0.006335814483463764 -0.010015347972512245
000250 00 00 00 20 4b 8b 72 bf 00 00 00 20 62 cb 75 3f
       -0.004527371842414141 0.005320914555341005
000260 00 00 00 40 5d 23 a8 3f 00 00 00 c0 27 7e a2 3f
       0.0471448078751564 0.03611873835325241
000270 00 00 00 40 c3 cf 55 bf 00 00 00 a0 85 2a 8b 3f
       -0.0013312727678567171 0.013264697976410389
000280 00 00 00 20 b2 5a 7b 3f 00 00 00 a0 aa e3 96 bf
       0.006678291130810976 -0.022352853789925575
000290 00 00 00 e0 13 3a 71 bf 00 00 00 20 79 10 a1 3f
       -0.004205777775496244 0.03332880511879921
0002a0 00 00 00 e0 0a 69 96 bf 00 00 00 60 6f bb 9d bf
       -0.021885080263018608 -0.02903532050549984
0002b0 00 00 00 40 8b ff 43 bf 00 00 00 60 1b 5f c0 bf
       -0.0006102971965447068 -0.12790243327617645
0002c0 00 00 00 80 3b c2 83 3f 00 00 00 40 d6 94 a6 3f
       0.009647812694311142 0.044104285538196564
0002d0 00 00 00 a0 3f 8f 8b 3f 00 00 00 80 81 01 9e 3f
       0.013456818647682667 0.02930261939764023
0002e0 00 00 00 a0 31 72 88 bf 00 00 00 00 7f e0 91 3f
       -0.011936557479202747 0.01745794713497162
0002f0 00 00 00 60 29 d3 90 3f 00 00 00 60 61 9e 8a 3f
       0.01643051765859127 0.01299739908427
000300 00 00 00 20 fc cc a2 bf 00 00 00 40 79 b9 83 3f
       -0.036720160394907 0.00963110662996769
000310 00 00 00 20 db 3c 84 bf 00 00 00 20 bf 54 83 3f
       -0.009881698526442051 0.009438985027372837
000320 00 00 00 20 96 c4 af bf 00 00 00 60 b5 04 88 bf
       -0.06204671040177345 -0.011727730743587017
000330 00 00 00 60 be d5 72 3f 00 00 00 00 ad 0e a3 bf
       0.004598373081535101 -0.03722134232521057
000340 00 00 00 20 42 0c 5d 3f 00 00 00 00 63 4a 86 bf
       0.0017729421379044652 -0.01088406890630722
000350 00 00 00 00 88 03 92 bf 00 00 00 40 ee a5 9f 3f
       -0.01759159564971924 0.03090641275048256
000360 00 00 00 00 f3 a9 92 3f 00 00 00 80 08 ec b4 bf
       0.01822642982006073 -0.08172658085823059
000370 00 00 00 40 d1 f1 80 3f 00 00 00 80 bd 56 82 3f
       0.008273730054497719 0.008954506367444992
000380 00 00 00 60 9d 45 a4 3f 00 00 00 40 c3 7d 90 3f
       0.039593618363142014 0.016104746609926224
000390 00 00 00 c0 3e 6c 70 bf 00 00 00 a0 44 37 a9 3f
       -0.0040094805881381035 0.049249786883592606
0003a0 00 00 00 a0 a5 e9 93 bf 00 00 00 20 0a 3c 8b bf
       -0.019445979967713356 -0.013298110105097294
0003b0 00 00 00 a0 bc d7 91 3f 00 00 00 20 b6 31 a3 bf
       0.017424533143639565 -0.03748864307999611
0003c0 00 00 00 a0 1e 5b 72 3f 00 00 00 a0 a5 e9 a3 bf
       0.004481429699808359 -0.03889195993542671
0003d0 00 00 00 c0 0b e8 96 bf 00 00 00 80 bd 56 82 bf
       -0.022369559854269028 -0.008954506367444992
0003e0 00 00 00 e0 0a 69 a6 3f 00 00 00 20 96 c4 5f 3f
       0.043770160526037216 0.0019389597000554204
0003f0 00 00 00 20 c9 9a 9e bf 00 00 00 20 e0 e4 51 bf
       -0.029887335374951363 -0.001092165824957192
000400 00 00 00 20 26 24 6c bf 00 00 00 60 25 a5 4b bf
       -0.003435205901041627 -0.000843661546241492
000410 00 00 00 e0 2f 22 92 bf 00 00 00 80 8f 7a 96 3f
       -0.017708538100123405 0.021951906383037567
000420 00 00 00 a0 31 72 98 bf 00 00 00 60 b0 5c aa 3f
       -0.023873114958405495 0.05148841068148613
000430 00 00 00 c0 35 ed 8a bf 00 00 00 60 df 09 ac 3f
       -0.013147754594683647 0.0547628216445446
000440 00 00 00 c0 27 d0 47 3f 00 00 00 e0 ae b0 7e 3f
       0.000726718339137733 0.0074927168898284435
000450 00 00 00 a0 aa 91 a1 3f 00 00 00 c0 02 c5 a6 3f
       0.03431447222828865 0.044471822679042816
000460 00 00 00 00 b7 54 8e bf 00 00 00 60 61 4c a5 bf
       -0.014810018241405487 -0.0415983609855175
000470 00 00 00 20 21 d8 63 3f 00 00 00 a0 23 a7 9a 3f
       0.0024223944637924433 0.026028210297226906
000480 00 00 00 80 61 f0 7f bf 00 00 00 00 5f 73 7e 3f
       -0.0077976044267416 0.007434245198965073
000490 00 00 00 00 fd 9d 98 3f 00 00 00 60 ab 10 a2 bf
       0.02404017746448517 -0.03528342768549919
0004a0 00 00 00 e0 5e 21 59 bf 00 00 00 60 6f 69 88 bf
       -0.0015338350785896182 -0.011919851414859295
0004b0 00 00 00 80 e2 61 a3 3f 00 00 00 c0 7b 88 8a bf
       0.03785617649555206 -0.01295563392341137
0004c0 00 00 00 a0 e2 b3 58 3f 00 00 00 40 b1 89 95 bf
       0.001507731736637652 -0.021033067256212234
0004d0 00 00 00 00 43 8b 8d bf 00 00 00 60 4f aa 5f 3f
       -0.014425776898860931 0.0019326949259266257
0004e0 00 00 00 c0 ce 1d 92 bf 00 00 00 20 21 d8 83 3f
       -0.017691832035779953 0.009689577855169773
0004f0 00 00 00 00 fd ef 9d bf 00 00 00 e0 8d ce 9a 3f
       -0.02923579514026642 0.026178566738963127
000500 00 00 00 e0 c9 75 94 bf 00 00 00 40 d1 9a 83 3f
       -0.019980577751994133 0.009572634473443031
000510 00 00 00 40 38 18 a7 bf 00 00 00 c0 27 7e 72 3f
       -0.04510665684938431 0.004514842294156551
000520 00 00 00 c0 6d bd 8c bf 00 00 00 a0 89 58 90 bf
       -0.014033181592822075 -0.015962744131684303
000530 00 00 00 a0 af 2f 8f 3f 00 00 00 00 55 84 80 3f
       0.015227672643959522 0.008064903318881989
000540 00 00 00 60 37 99 86 3f 00 00 00 40 6b 40 ab 3f
       0.011034424416720867 0.05322585254907608
000550 00 00 00 e0 7a 09 9a bf 00 00 00 80 fa 20 17 3f
       -0.02542678825557232 8.822945528663695e-05
000560 00 00 00 00 71 6c 91 3f 00 00 00 60 a2 ed a1 3f
       0.017015233635902405 0.03501613065600395
000570 00 00 00 e0 ad 8d 93 bf 00 00 00 80 d5 67 5b bf
       -0.019095150753855705 -0.0016727051697671413
000580 00 00 00 00 e5 de a4 3f 00 00 00 00 4c 5c a8 bf
       0.04076305031776428 -0.047579169273376465
000590 00 00 00 20 ea 2a 7d 3f 00 00 00 e0 1d 80 ac 3f
       0.00712100462988019 0.05566495284438133
0005a0 00 00 00 40 5d d1 72 3f 00 00 00 40 d1 9a 93 3f
       0.004594196565449238 0.019145268946886063
0005b0 00 00 00 80 24 26 7b 3f 00 00 00 a0 64 48 a7 bf
       0.006628172472119331 -0.04547419026494026
0005c0 00 00 00 20 75 90 96 bf 00 00 00 20 9f e7 8f 3f
       -0.02203543670475483 0.015578501857817173
0005d0 00 00 00 40 b1 db aa 3f 00 00 00 20 88 a7 7c bf
       0.05245736986398697 -0.006995708215981722
0005e0 00 00 00 20 4b dd 47 3f 00 00 00 a0 28 4f 98 bf
       0.0007282845326699317 -0.023739466443657875
0005f0 00 00 00 40 a3 be 97 bf 00 00 00 20 d7 13 77 3f
       -0.023188162595033646 0.005634155590087175
000600 00 00 00 00 19 86 59 bf 00 00 00 c0 1d dc a1 bf
       -0.0015578502789139748 -0.034882478415966034
000610 00 00 00 20 e5 30 8a bf 00 00 00 c0 02 c5 96 3f
       -0.01278857234865427 0.022235911339521408
000620 00 00 00 e0 7a b7 44 bf 00 00 00 c0 56 cf 8e bf
       -0.0006322240806184709 -0.01504390500485897
000630 00 00 00 80 93 a3 93 bf 00 00 00 60 0d 94 92 bf
       -0.019178681075572968 -0.018142899498343468
000640 00 00 00 80 af 8b 84 3f 00 00 00 80 a6 68 a4 bf
       0.010032054036855698 -0.03986091911792755
000650 00 00 00 80 e3 84 8e 3f 00 00 00 80 44 3c 81 bf
       0.01490190252661705 -0.00841573253273964
000660 00 00 00 20 87 84 81 bf 00 00 00 60 81 5d 73 3f
       -0.00855355802923441 0.004727845545858145
000670 00 00 00 20 59 a8 75 3f 00 00 00 00 63 f8 70 bf
       0.0052875024266541 -0.004143130034208298
000680 00 00 00 80 de 38 76 bf 00 00 00 e0 0a 69 96 bf
       -0.005425328388810158 -0.021885080263018608
000690 00 00 00 c0 76 3c a2 3f 00 00 00 e0 55 fe 98 3f
       0.03561755269765854 0.02440771274268627
0006a0 00 00 00 40 ba 5a a0 3f 00 00 00 e0 50 b2 90 3f
       0.03194219619035721 0.016305221244692802
0006b0 00 00 00 00 e1 b5 97 3f 00 00 00 a0 d8 bf 92 bf
       0.02315475046634674 -0.018309960141777992
0006c0 00 00 00 60 d0 72 80 bf 00 00 00 80 08 3e aa 3f
       -0.008031490258872509 0.051254525780677795
0006d0 00 00 00 60 40 bc 76 bf 00 00 00 60 24 82 70 3f
       -0.0055506243370473385 0.004030363168567419
0006e0 00 00 00 80 c2 a2 6a bf 00 00 00 e0 1d 2e 97 bf
       -0.0032514380291104317 -0.022636858746409416
0006f0 00 00 00 80 98 ef 9b bf 00 00 00 80 b0 ae 6f 3f
       -0.027281172573566437 0.003867478109896183
000700 00 00 00 e0 a4 6a 73 3f 00 00 00 a0 d4 96 75 bf
       0.004740375559777021 -0.005270796362310648
000710 00 00 00 60 4e 87 64 3f 00 00 00 e0 67 f2 a3 3f
       0.002505925251170993 0.03895878419280052
000720 00 00 00 60 d0 72 90 bf 00 00 00 60 53 2f 92 3f
       -0.016062980517745018 0.017758658155798912
000730 00 00 00 00 5f 73 6e bf 00 00 00 a0 93 f5 98 3f
       -0.0037171225994825363 0.024374300613999367
000740 00 00 00 60 65 75 92 3f 00 00 00 00 67 ca 20 bf
       0.01802595518529415 -0.00012810237240046263
000750 00 00 00 60 e8 da 86 bf 00 00 00 40 4b 2f 4d bf
       -0.011159720830619335 -0.0008906476432457566
000760 00 00 00 00 50 85 a5 3f 00 00 00 c0 02 c5 86 bf
       0.042032718658447266 -0.011117955669760704
000770 00 00 00 a0 eb d6 68 3f 00 00 00 e0 4c 2d 7e 3f
       0.0030321695376187563 0.0073674204759299755
000780 00 00 00 a0 af dd 79 bf 00 00 00 80 23 03 90 bf
       -0.006314931903034449 -0.015636973083019257
000790 00 00 00 60 df 09 9c bf 00 00 00 a0 3f 8f 9b 3f
       -0.0273814108222723 0.026913637295365334
0007a0 00 00 00 20 01 19 5b 3f 00 00 00 c0 7f 5f 82 3f
       0.0016539107309654355 0.008971212431788445
0007b0 00 00 00 c0 27 d0 87 bf 00 00 00 20 62 cb 95 3f
       -0.011627493426203728 0.02128365822136402
0007c0 00 00 00 40 17 88 88 3f 00 00 00 40 20 59 a3 bf
       0.011978322640061378 -0.03778935223817825
0007d0 00 00 00 40 a7 e7 a4 bf 00 00 00 00 01 c7 85 bf
       -0.04082987457513809 -0.010633476078510284
0007e0 00 00 00 20 42 ba 97 3f 00 00 00 80 65 c7 97 3f
       0.023171456530690193 0.02322157472372055
0007f0 00 00 00 00 f8 f5 8a 3f 00 00 00 20 b6 88 a0 3f
       0.0131644606590271 0.03229302540421486
