embeddings/weight_embedding.npy (npy, 24704 bytes, 1 tensors)

array f8 [3072]
000000 00 00 00 80 e0 19 93 bf 00 00 00 80 b2 7e 68 bf
       -0.018653400242328644 -0.0029901014640927315
000010 00 00 00 00 b7 03 8d 3f 00 00 00 20 1a e5 5e bf
       0.014167241752147675 -0.0018856768729165196
000020 00 00 00 a0 b5 03 45 bf 00 00 00 e0 37 46 37 3f
       -0.0006413113442249596 0.0003551374829839915
000030 00 00 00 a0 ee 07 a5 3f 00 00 00 a0 be 0d 9e 3f
       0.041076142340898514 0.029349306598305702
000040 00 00 00 a0 0b 1d 95 bf 00 00 00 e0 fa 83 9e 3f
       -0.020618611946702003 0.02980033867061138
000050 00 00 00 e0 48 cc a1 bf 00 00 00 40 31 75 a2 3f
       -0.034761693328619 0.036050356924533844
000060 00 00 00 20 b1 7e 50 3f 00 00 00 e0 37 46 57 bf
       0.0010067682014778256 -0.001420549931935966
000070 00 00 00 e0 9a 27 99 bf 00 00 00 20 8e 4c 8b 3f
       -0.024565143510699272 0.013329611159861088
000080 00 00 00 60 d7 8a 7d bf 00 00 00 40 f9 96 82 bf
       -0.007212487515062094 -0.009077021852135658
000090 00 00 00 20 e4 65 9b bf 00 00 00 20 2e f0 95 bf
       -0.02675587125122547 -0.021424027159810066
0000a0 00 00 00 a0 be 0d 9e 3f 00 00 00 c0 8b 13 97 bf
       0.029349306598305702 -0.022535499185323715
0000b0 00 00 00 a0 b7 62 91 3f 00 00 00 e0 b3 dd 90 3f
       0.01697813905775547 0.01647072844207287
0000c0 00 00 00 60 68 07 8a bf 00 00 00 a0 45 5a 91 3f
       -0.012709441594779491 0.01694592274725437
0000d0 00 00 00 e0 75 2e 90 3f 00 00 00 80 28 45 91 3f
       0.015802232548594475 0.016865380108356476
0000e0 00 00 00 60 a1 0b 9a bf 00 00 00 60 7a b3 94 bf
       -0.025434991344809532 -0.020215904340147972
0000f0 00 00 00 20 12 01 76 bf 00 00 00 e0 7e 38 99 3f
       -0.005372114945203066 0.02462957613170147
000100 00 00 00 c0 54 6e a3 bf 00 00 00 20 e6 c4 a7 3f
       -0.03795113414525986 0.04642409458756447
000110 00 00 00 60 cd 47 a8 bf 00 00 00 60 5d 9e a4 3f
       -0.04742280766367912 0.04027072712779045
000120 00 00 00 20 4a df a5 3f 00 00 00 a0 43 fb 54 bf
       0.04271918907761574 -0.0012806091690436006
000130 00 00 00 00 1c 44 8b bf 00 00 00 40 48 6d 7d bf
       -0.013313502073287964 -0.007184297777712345
000140 00 00 00 60 de cd a2 bf 00 00 00 60 bd fa 99 3f
       -0.036726903170347214 0.025370558723807335
000150 00 00 00 00 ca e8 a3 bf 00 00 00 40 64 5c 7d 3f
       -0.038885414600372314 0.007168189622461796
000160 00 00 00 20 0e 43 8d 3f 00 00 00 20 f5 eb 75 3f
       0.014288053847849369 0.005351979751139879
000170 00 00 00 20 63 36 7d 3f 00 00 00 60 be 20 7a 3f
       0.0071319458074867725 0.00637888303026557
000180 00 00 00 c0 62 5c 85 3f 00 00 00 40 dd a7 a2 bf
       0.010430118069052696 -0.03643695265054703
000190 00 00 00 e0 46 6d 95 3f 00 00 00 a0 16 86 7a bf
       0.02092467062175274 -0.00647553289309144
0001a0 00 00 00 20 0e 43 7d bf 00 00 00 c0 1c 90 73 3f
       -0.0071440269239246845 0.004776108078658581
0001b0 00 00 00 20 cb 0e 74 3f 00 00 00 c0 c0 59 9e 3f
       0.004896920640021563 0.02963925525546074
0001c0 00 00 00 20 53 e9 ae 3f 00 00 00 a0 c5 50 a3 3f
       0.06037387624382973 0.03772561624646187
0001d0 00 00 00 40 e7 ea 97 bf 00 00 00 00 28 e6 9c bf
       -0.023357022553682327 -0.028221726417541504
0001e0 00 00 00 e0 b9 9b a5 bf 00 00 00 20 d9 fc 95 bf
       -0.04220372065901756 -0.021472351625561714
0001f0 00 00 00 a0 53 48 a3 bf 00 00 00 c0 70 5d 93 bf
       -0.03766118362545967 -0.01891113445162773
000200 00 00 00 a0 4c 05 ae bf 00 00 00 20 8c ed 6e 3f
       -0.05863418057560921 0.0037753807846456766
000210 00 00 00 60 bb 9b 6d 3f 00 00 00 40 a2 44 a6 3f
       0.0036142978351563215 0.043492384254932404
000220 00 00 00 a0 fb cf 96 3f 00 00 00 40 71 24 af 3f
       0.022277766838669777 0.060824908316135406
000230 00 00 00 60 11 b5 ad bf 00 00 00 40 2e dd 99 bf
       -0.058022063225507736 -0.02525779977440834
000240 00 00 00 60 4a b9 9d bf 00 00 00 80 df f3 82 3f
       -0.029027139768004417 0.00925421342253685
000250 00 00 00 60 07 85 74 bf 00 00 00 80 04 39 90 3f
       -0.005009678658097982 0.015842504799365997
000260 00 00 00 00 12 14 72 3f 00 00 00 00 e6 d7 93 3f
       0.004413671791553497 0.01937827467918396
000270 00 00 00 a0 4d 2b 9e 3f 00 00 00 40 66 bb 99 3f
       0.029462063685059547 0.025128934532403946
000280 00 00 00 20 ad c0 a7 3f 00 00 00 e0 39 a5 13 bf
       0.04639187827706337 -7.494130841223523e-05
000290 00 00 00 20 53 e9 4e bf 00 00 00 40 ab 4e 8f 3f
       -0.0009433418163098395 0.015286767855286598
0002a0 00 00 00 20 8e 4c 8b bf 00 00 00 e0 fc e2 7a bf
       -0.013329611159861088 -0.006564128678292036
0002b0 00 00 00 80 db 35 9a bf 00 00 00 40 78 67 b4 bf
       -0.025596074759960175 -0.07970382273197174
0002c0 00 00 00 80 fc 08 13 3f 00 00 00 e0 38 6c 97 3f
       7.261315477080643e-05 0.0228737723082304
0002d0 00 00 00 a0 dd 81 8a bf 00 00 00 a0 d0 b9 78 bf
       -0.012943011708557606 -0.006036581937223673
0002e0 00 00 00 60 7b ec 90 bf 00 00 00 00 da 35 a2 bf
       -0.01652710698544979 -0.03556710481643677
0002f0 00 00 00 60 ae 1f a0 3f 00 00 00 c0 6e fe a6 3f
       0.031491708010435104 0.04490991681814194
000300 00 00 00 20 c7 50 9b bf 00 00 00 40 cb fb 87 bf
       -0.026675330474972725 -0.011710727587342262
000310 00 00 00 80 af 45 a0 3f 00 00 00 00 9d 73 99 3f
       0.03178165853023529 0.02485509216785431
000320 00 00 00 80 b6 3c 91 bf 00 00 00 80 68 f4 9d bf
       -0.016833163797855377 -0.029252655804157257
000330 00 00 00 a0 29 6b a1 bf 00 00 00 60 fb e2 72 bf
       -0.03402071073651314 -0.004610998090356588
000340 00 00 00 a0 23 4e 9c 3f 00 00 00 80 5e c4 94 bf
       0.02764182724058628 -0.02028033882379532
000350 00 00 00 00 ca e8 93 3f 00 00 00 20 8f 72 ab 3f
       0.019442707300186157 0.05360839143395424
000360 00 00 00 80 30 29 7a 3f 00 00 00 40 b1 6b 94 bf
       0.006386937573552132 -0.019942063838243484
000370 00 00 00 a0 52 22 93 bf 00 00 00 e0 47 93 65 3f
       -0.01868561841547489 0.0026337055023759604
000380 00 00 00 40 32 9b 72 bf 00 00 00 80 dc 5b 6a bf
       -0.0045425379648804665 -0.00321763101965189
000390 00 00 00 a0 be 0d 8e 3f 00 00 00 20 4c 3e 82 bf
       0.014674653299152851 -0.008907885290682316
0003a0 00 00 00 40 68 1a 96 bf 00 00 00 e0 ed bb 8c 3f
       -0.02158511057496071 0.01403032150119543
0003b0 00 00 00 80 ed e1 a4 3f 00 00 00 a0 85 09 7e bf
       0.04078619182109833 -0.007333299610763788
0003c0 00 00 00 e0 7b b3 8c 3f 00 00 00 e0 3a cb 63 3f
       0.014014213345944881 0.0024162435438483953
0003d0 00 00 00 60 c8 63 8f bf 00 00 00 a0 53 48 83 bf
       -0.015327039174735546 -0.009415295906364918
0003e0 00 00 00 a0 16 86 8a 3f 00 00 00 00 f3 9f 95 3f
       0.01295106578618288 0.02111797034740448
0003f0 00 00 00 60 86 55 a6 bf 00 00 00 a0 53 48 93 bf
       -0.0436212532222271 -0.018830591812729836
000400 00 00 00 00 e6 d7 a3 bf 00 00 00 20 e4 65 ab bf
       -0.03875654935836792 -0.05351174250245094
000410 00 00 00 60 cd 47 78 bf 00 00 00 20 3d 17 84 3f
       -0.00592785095795989 0.009809949435293674
000420 00 00 00 c0 a5 a3 9a bf 00 00 00 60 3f 50 98 3f
       -0.026014890521764755 0.02374362014234066
000430 00 00 00 60 0a 0a 91 bf 00 00 00 20 1f c9 57 bf
       -0.016639864072203636 -0.001451759715564549
000440 00 00 00 20 04 13 94 3f 00 00 00 00 93 43 80 bf
       0.0196037907153368 -0.007941387593746185
000450 00 00 00 c0 ff 7a 63 bf 00 00 00 20 ce 93 70 bf
       -0.002377986442297697 -0.004047207999974489
000460 00 00 00 e0 58 19 a0 bf 00 00 00 00 2f 29 a2 bf
       -0.031443383544683456 -0.03547045588493347
000470 00 00 00 c0 9a 3a 55 bf 00 00 00 80 28 45 a1 3f
       -0.0012957106810063124 0.03373076021671295
000480 00 00 00 20 ea 82 90 3f 00 00 00 e0 e0 f3 8a 3f
       0.01612439937889576 0.01316047366708517
000490 00 00 00 e0 ad 0c 90 3f 00 00 00 e0 17 99 9e bf
       0.01567336730659008 -0.029880879446864128
0004a0 00 00 00 60 d0 df 80 3f 00 00 00 40 a1 1e 96 bf
       0.008239391259849072 -0.021601218730211258
0004b0 00 00 00 80 5b 2c 9c 3f 00 00 00 60 7c 12 a1 bf
       0.027512960135936737 -0.03334416076540947
0004c0 00 00 00 40 5a 19 88 3f 00 00 00 60 4a b9 8d 3f
       0.011767106130719185 0.014513569884002209
0004d0 00 00 00 c0 38 7f 73 bf 00 00 00 e0 0d 69 95 3f
       -0.0047599999234080315 0.02090856246650219
0004e0 00 00 00 a0 8c 4c 93 bf 00 00 00 a0 d2 18 a5 3f
       -0.018846699967980385 0.04120500758290291
0004f0 00 00 00 a0 04 da 8f bf 00 00 00 80 a3 57 5a 3f
       -0.015552555210888386 0.0016078087501227856
000500 00 00 00 20 d4 18 7d 3f 00 00 00 e0 e6 10 90 bf
       0.007103756535798311 -0.01568947546184063
000510 00 00 00 60 5b 3f 88 bf 00 00 00 00 ca e8 53 bf
       -0.011839593760669231 -0.0012151692062616348
000520 00 00 00 c0 1c 90 83 bf 00 00 00 a0 4c 05 9e 3f
       -0.009552216157317162 0.029317090287804604
000530 00 00 00 c0 0e a2 a1 3f 00 00 00 00 56 81 67 bf
       0.03443952649831772 -0.002869289368391037
000540 00 00 00 e0 d4 64 85 bf 00 00 00 e0 a9 4e a7 3f
       -0.01044622715562582 0.04552203044295311
000550 00 00 00 c0 5f d7 58 3f 00 00 00 00 e7 fd 83 bf
       0.0015161929186433554 -0.009761624038219452
000560 00 00 00 00 75 f5 93 3f 00 00 00 80 61 49 71 3f
       0.019491031765937805 0.004220372065901756
000570 00 00 00 c0 7a 8d 8c 3f 00 00 00 c0 38 7f a3 3f
       0.013941725715994835 0.03807999938726425
000580 00 00 00 c0 80 aa a1 3f 00 00 00 20 d5 3e 9d 3f
       0.034503959119319916 0.02855999954044819
000590 00 00 00 40 1c 31 8f 3f 00 00 00 c0 60 fd a8 3f
       0.015230389311909676 0.04880812019109726
0005a0 00 00 00 40 30 3c 66 3f 00 00 00 60 e9 36 a8 3f
       0.002714246977120638 0.04729394242167473
0005b0 00 00 00 80 32 88 96 3f 00 00 00 a0 a8 3b a3 bf
       0.02200392633676529 -0.037564534693956375
0005c0 00 00 00 60 58 06 a0 bf 00 00 00 60 f8 5d 76 3f
       -0.03129841014742851 0.005460710730403662
0005d0 00 00 00 60 bc c1 8d 3f 00 00 00 c0 eb 6f ac 3f
       0.014529678039252758 0.05554138869047165
0005e0 00 00 00 a0 fb cf 56 3f 00 00 00 40 af 0c 98 bf
       0.001392360427416861 -0.023485887795686722
0005f0 00 00 00 c0 35 fa 86 bf 00 00 00 80 61 49 61 bf
       -0.01121942512691021 -0.002110186032950878
000600 00 00 00 20 05 39 94 3f 00 00 00 a0 93 f7 9f 3f
       0.019748764112591743 0.031217867508530617
000610 00 00 00 60 24 9a 64 3f 00 00 00 40 f5 d8 a9 bf
       0.0025149069260805845 -0.05048338323831558
000620 00 00 00 00 b7 03 7d bf 00 00 00 a0 b8 88 a1 bf
       -0.007083620876073837 -0.03424622491002083
000630 00 00 00 a0 78 41 9c 3f 00 00 00 e0 0e 8f a5 3f
       0.027593502774834633 0.04210707172751427
000640 00 00 00 00 2f 29 a2 3f 00 00 00 80 bd e7 9d bf
       0.03547045588493347 -0.02920433133840561
000650 00 00 00 e0 82 f6 91 bf 00 00 00 00 58 e0 a3 bf
       -0.017541928216814995 -0.03882098197937012
000660 00 00 00 e0 02 00 a0 bf 00 00 00 e0 c8 c2 a3 bf
       -0.031250085681676865 -0.03859546408057213
000670 00 00 00 e0 61 23 99 3f 00 00 00 60 cc 21 a8 bf
       0.024549035355448723 -0.047132860869169235
000680 00 00 00 80 5b 2c 8c 3f 00 00 00 00 66 ce 65 3f
       0.013756480067968369 0.0026618950068950653
000690 00 00 00 c0 28 32 95 bf 00 00 00 60 e9 36 88 3f
       -0.0206991545855999 0.011823485605418682
0006a0 00 00 00 00 4b 18 92 3f 00 00 00 40 db 48 86 3f
       0.01767079532146454 0.010881150141358376
0006b0 00 00 00 00 fd cf 7e bf 00 00 00 80 6c b2 96 3f
       -0.007522571831941605 0.022165007889270782
0006c0 00 00 00 a0 43 fb 94 bf 00 00 00 40 a1 1e 96 3f
       -0.02048974670469761 0.021601218730211258
0006d0 00 00 00 c0 2a 91 a1 bf 00 00 00 20 92 0a 54 3f
       -0.034310661256313324 0.0012232234003022313
0006e0 00 00 00 80 5f ea 84 bf 00 00 00 80 23 61 88 bf
       -0.010212656110525131 -0.011904027312994003
0006f0 00 00 00 80 25 c0 94 3f 00 00 00 60 6c c5 92 3f
       0.02026423066854477 0.018331235274672508
000700 00 00 00 20 85 42 a2 bf 00 00 00 e0 bb fa 91 3f
       -0.03566375747323036 0.017558036372065544
000710 00 00 00 00 58 e0 a3 3f 00 00 00 c0 c0 59 7e 3f
       0.03882098197937012 0.007409813813865185
000720 00 00 00 60 bb 9b 8d 3f 00 00 00 a0 07 5f 9c 3f
       0.014457191340625286 0.027706259861588478
000730 00 00 00 a0 8b 26 63 3f 00 00 00 a0 b7 62 91 bf
       0.00233771582134068 -0.01697813905775547
000740 00 00 00 c0 61 36 75 3f 00 00 00 00 68 2d a2 3f
       0.005178815685212612 0.03550267219543457
000750 00 00 00 e0 54 5b a7 bf 00 00 00 e0 98 c8 9c bf
       -0.045618679374456406 -0.02810896746814251
000760 00 00 00 e0 9c 86 95 3f 00 00 00 a0 b0 6b 90 bf
       0.021021319553256035 -0.01603580452501774
000770 00 00 00 40 23 74 a4 bf 00 00 00 a0 44 21 75 3f
       -0.039948560297489166 0.005158680025488138
000780 00 00 00 80 22 28 9c bf 00 00 00 c0 aa 87 43 bf
       -0.027496851980686188 -0.0005960067501291633
000790 00 00 00 80 92 30 80 bf 00 00 00 c0 b9 ae a1 bf
       -0.00790514424443245 -0.034536175429821014
0007a0 00 00 00 80 b0 1f 8c bf 00 00 00 60 d1 05 71 3f
       -0.013732317835092545 0.004155938979238272
0007b0 00 00 00 c0 1a 31 a7 bf 00 00 00 60 5d 9e 94 bf
       -0.04529651254415512 -0.020135363563895226
0007c0 00 00 00 40 67 e1 89 3f 00 00 00 80 f7 24 9a bf
       0.012636953964829445 -0.025531642138957977
0007d0 00 00 00 e0 65 e1 a1 bf 00 00 00 c0 52 0f 87 bf
       -0.034922774881124496 -0.011259695515036583
0007e0 00 00 00 a0 d0 b9 88 3f 00 00 00 20 2e f0 85 3f
       0.012073163874447346 0.010712013579905033
0007f0 00 00 00 60 4a b9 9d 3f 00 00 00 80 5d 8b 78 bf
       0.029027139768004417 -0.005992284044623375
